code/stage_5_code/result/GCN_model.pth (torch, 238879 bytes, 4 tensors)

gc1.weight f4 [3703, 16]
0	0x3d20db80	0.03927183
1	0xbc4fec88	-0.012690671
2	0xbcda7cae	-0.02667078
3	0xbd5a36fa	-0.053275086
4	0xbd15f21a	-0.03660784
5	0xbc8b9d05	-0.017042646
6	0x3d593b0e	0.053034835
7	0x3bdf1c07	0.006808761
8	0x3d4131d3	0.047166657
9	0x3c5b6ae6	0.013392186
10	0xbd20c4d1	-0.0392502
11	0xbd0a5b0d	-0.03377824
12	0xbd09bf14	-0.033629492
13	0xbc6e63c1	-0.01455015
14	0x3b88424c	0.004158294
15	0x3c49637c	0.012291785
16	0xbc4da544	-0.012551609
17	0xbd7f290f	-0.062295016
18	0xbd8e747b	-0.06955811
19	0xbdafbb82	-0.08580686
20	0x3d87881f	0.0661776
21	0xbd83392b	-0.06407388
22	0xbd0384dc	-0.032109126
23	0xbd8dde4a	-0.06927164
24	0x3d359da2	0.044339783
25	0x3d5a86ee	0.053351335
26	0x3cd14e49	0.025550025
27	0xbddbb6c4	-0.10728219
28	0xbc134187	-0.008987791
29	0x3dce9007	0.10086065
30	0xbdc29d77	-0.0950269
31	0x3d877489	0.06614024
32	0xbd639755	-0.055564243
33	0xbd28b9a0	-0.04119265
34	0xbd24b88d	-0.040215064
35	0x3c6d3f11	0.014480368
36	0x3d4f40f2	0.050599046
37	0x3c445873	0.011983979
38	0xbd2e70f9	-0.042588208
39	0xbd0b49ad	-0.03400581
40	0xbcc86795	-0.024463454
41	0xbc570007	-0.013122565
42	0x3d570ce0	0.052502513
43	0xbd1e5009	-0.038650546
44	0xbd033528	-0.032033116
45	0xbb999da5	-0.004687982
46	0x3c449514	0.011998434
47	0xbcda37e8	-0.026637986
48	0xbc975e5d	-0.018477613
49	0xbd3e0f51	-0.046401326
50	0xbc89f592	-0.01684073
51	0x3c83229e	0.016007718
52	0x3d315048	0.043289453
53	0x3d50a5f7	0.050939526
54	0xbc461300	-0.012089491
55	0xba812f2a	-0.0009855975
56	0xbd431dd0	-0.047635853
57	0xbbf4c88e	-0.007470197
58	0x3c33e074	0.010978807
59	0xbd0bf41e	-0.034168355
60	0xbc1580a0	-0.009124905
61	0xbc993a80	-0.018704653
62	0x3c849669	0.016185002
63	0xbd473784	-0.04863693
64	0xbc03088a	-0.007997641
65	0xbcf94acb	-0.030431172
66	0xbc9624ef	-0.018328158
67	0xbd207eb5	-0.039183337
68	0x3d5e2baf	0.05424088
69	0xbcb242c4	-0.021760352
70	0xbcec5ec5	-0.028853783
71	0xbd07cffa	-0.033157326
72	0x3ca4530a	0.020059127
73	0x3d133a59	0.035944317
74	0x3d07e0b4	0.033173278
75	0xbd41af33	-0.047286224
76	0x3c80d3c8	0.015725985
77	0x3d080bb7	0.033214297
78	0xbce31175	-0.027718285
79	0x3beed696	0.007288764
80	0x3b501a5a	0.0031753988
81	0x3c8f6160	0.017502487
82	0xbc7c4f31	-0.01539974
83	0x3c309e2c	0.010779899
84	0xbc5450d0	-0.01295872
85	0xbc8bbf0f	-0.017058877
86	0x3cc11495	0.023569385
87	0xbc784ca2	-0.015154989
88	0x3c16cd04	0.009204153
89	0xbca635f9	-0.020289408
90	0xbc3e1def	-0.011603816
91	0x3c9b69f5	0.018971423
92	0xbc79d1e2	-0.015247794
93	0xbc772a15	-0.015085717
94	0xbb5e1392	-0.0033886177
95	0x3c5bea30	0.013422534
96	0x3a0b7ea6	0.0005321301
97	0x3b5f0140	0.0034027845
98	0xbabdfaa9	-0.0014494258
99	0x3ab2c0e7	0.0013637812
100	0xbb120163	-0.0022278659
101	0xba3d3179	-0.000721715
102	0xbb259a12	-0.0025268835
103	0xbb237dac	-0.0024946732
104	0x3a207b54	0.0006121893
105	0xbb77585e	-0.003774188
106	0xbaf6fdcc	-0.0018843948
107	0x3b3062b0	0.002691429
108	0xbb69ee41	-0.003569499
109	0xbb50efac	-0.0031881137
110	0xbaa79abc	-0.0012787203
111	0x3b3ba4f5	0.0028632258
112	0x3d813429	0.06308777
113	0xbdf5a26b	-0.119938694
114	0xbcd7e5f0	-0.02635476
115	0xbdfef5e4	-0.12449244
116	0x3dfeb531	0.12436903
117	0xbd8514e8	-0.06498128
118	0xbd929658	-0.07157582
119	0xbdea723c	-0.1144757
120	0xbdb94f79	-0.09048361
121	0x3d7b55c7	0.0613611
122	0xbbd3b8c3	-0.0064612343
123	0xbe024a7a	-0.12723723
124	0x3c030976	0.007997861
125	0x3daac35b	0.08338042
126	0xbe05e530	-0.1307571
127	0x3d160b26	0.036631726
128	0x35a31cac	1.2152791e-06
129	0x359d8c51	1.1738249e-06
130	0xb61b8526	-2.3174302e-06
131	0x35ecc54f	1.7640795e-06
132	0x340903f0	1.2760552e-07
133	0xb6a32c46	-4.8629327e-06
134	0x35dbac35	1.636689e-06
135	0xb60cad81	-2.0962618e-06
136	0xb627d12a	-2.5006689e-06
137	0xb584467a	-9.855278e-07
138	0xb59d2f04	-1.1711095e-06
139	0xb5769bb6	-9.186873e-07
140	0x35a70756	1.2444605e-06
141	0xb67e0756	-3.785322e-06
142	0x35effe88	1.7880966e-06
143	0xb4dace58	-4.07558e-07
144	0xb9b05040	-0.00033629127
145	0xbac3239e	-0.0014887934
146	0xbb8fdc9e	-0.0043903133
147	0xbbf16ddb	-0.007367832
148	0xba0eef66	-0.0005452543
149	0xbb926e89	-0.004468743
150	0xbbd1642c	-0.0063901152
151	0xbb6dd0c1	-0.0036287757
152	0x3b78b8f3	0.0037952035
153	0x3aa0edea	0.0012277935
154	0x3bcde211	0.0062830527
155	0xbb7b6bff	-0.0038363931
156	0x39d363e6	0.00040319486
157	0x3a8f2f68	0.0010924162
158	0xb54d5000	-7.6484866e-07
159	0x3abcafaa	0.0014395614
160	0xbb740993	-0.0037237152
161	0xb97645d6	-0.00023486404
162	0xbb943be4	-0.004523741
163	0x3bc183d1	0.0059056063
164	0x3bbbddea	0.0057332413
165	0x3b45dc7d	0.0030191236
166	0xbb44794a	-0.002997952
167	0xb9310a9a	-0.00016883985
168	0xbc05536e	-0.008137567
169	0xbb8f400c	-0.0043716487
170	0x3b75573b	0.0037436027
171	0xbad3118e	-0.0016103254
172	0xba206281	-0.0006118194
173	0xbb9e7c49	-0.0048365933
174	0x3b114eef	0.0022172292
175	0xbb88c840	-0.0041742623
176	0xbcdda132	-0.027054403
177	0xbd6bed39	-0.05759928
178	0xbca2e5c1	-0.019884946
179	0xbd8bba64	-0.068226606
180	0x3cada636	0.02119742
181	0xbd3e7e12	-0.04650695
182	0xbcf5c04a	-0.029998917
183	0xbd25bf9f	-0.040465947
184	0x3d73cba6	0.059520386
185	0x3d48d5ce	0.049032025
186	0x3ca1d7ea	0.019756276
187	0xbd31b3c9	-0.043384347
188	0xbbc8ba73	-0.006125742
189	0x3d1f875d	0.03894745
190	0xbd1453f8	-0.03621289
191	0x3cde6b6e	0.027150836
192	0x3c9cdb52	0.019147549
193	0x3c7d32d8	0.015454017
194	0x3cb18bcf	0.021673111
195	0x3c21d6d6	0.009877881
196	0x3c17e62d	0.009271187
197	0x3c772f81	0.015087009
198	0x3b68b98a	0.003551098
199	0x3c372400	0.011178017
200	0xbc372137	-0.011177353
201	0x3c73c846	0.014879292
202	0xbcbaa6bb	-0.022784581
203	0x3c7e6d79	0.01552903
204	0x3c858be3	0.016302055
205	0x3c456183	0.012047174
206	0xbc98e1e4	-0.0186624
207	0x3c821231	0.015877815
208	0x3ca9e5eb	0.020739516
209	0x3d09ba86	0.03362515
210	0x3ae2bde5	0.0017299025
211	0x3bb9ece3	0.005673991
212	0xbcb6d8f3	-0.022320246
213	0xbc4f8cb8	-0.012667827
214	0x3d018843	0.03162409
215	0xbb33670a	-0.0027374648
216	0x3c765581	0.015035034
217	0xbca9534f	-0.020669607
218	0xbd0f7b27	-0.035029557
219	0x3d03911b	0.032120805
220	0xbc890a04	-0.016728409
221	0xbc4385f2	-0.0119337905
222	0xbc1bf3c1	-0.009518565
223	0x3cb3b63e	0.021937486
224	0xbb25b926	-0.002528736
225	0x3aeda586	0.0018130995
226	0x3ba2c7b1	0.0049676527
227	0x399489d8	0.0002833146
228	0xbb81db6c	-0.0039629247
229	0xbb8b3e98	-0.004249405
230	0xbb383886	-0.0028109862
231	0x3ba0d3fa	0.004908082
232	0x3bbd2317	0.0057720053
233	0x3ba272de	0.004957541
234	0x3b25e7ac	0.002531509
235	0x3bccf7fb	0.0062551475
236	0x3b4ab9ca	0.0030933493
237	0xbb7e558c	-0.0038808314
238	0x3b25e18d	0.002531144
239	0xbbfe820f	-0.007766969
240	0xb6185aec	-2.2702689e-06
241	0xb58a4770	-1.0302592e-06
242	0x3552fb18	7.8596486e-07
243	0xb6223dc0	-2.4175824e-06
244	0xb59862e0	-1.1353659e-06
245	0x36860df4	3.9951356e-06
246	0x36283246	2.5063214e-06
247	0xb5ee93a7	-1.7775354e-06
248	0xb58db94a	-1.0559245e-06
249	0x3655a5e2	3.183603e-06
250	0xb47388f0	-2.2680956e-07
251	0xb4af239c	-3.26222e-07
252	0xb50380e2	-4.898885e-07
253	0xb607d47a	-2.0240245e-06
254	0xb6068bd6	-2.0048951e-06
255	0x36acfba8	5.155296e-06

gc1.bias f4 [16]
0	0xbe012c21	-0.1261449
1	0xbe1a5f91	-0.15075518
2	0xbde14e4e	-0.110012636
3	0xbd88eaf6	-0.0668544
4	0x3e0a36e9	0.13497509
5	0x3d014aa2	0.031565316
6	0xbc0464d6	-0.008080682
7	0x3dfe3861	0.12413097
8	0x3e5160c2	0.20447066
9	0x3d793f12	0.060851164
10	0xbd8512d3	-0.06497731
11	0xbe270c45	-0.16313274
12	0x3c8c96e3	0.017161792
13	0x3e48548d	0.19563504
14	0xbbd46486	-0.00648171
15	0x3c8cf4b4	0.017206527

gc2.weight f4 [16, 6]
0	0x3f25aaaa	0.6471354
1	0xbe4c61ec	-0.19959229
2	0x3f3493fd	0.7053831
3	0xbeb0370f	-0.34417006
4	0xbe82d904	-0.25556195
5	0x3e80bd46	0.25144404
6	0x3eecc81d	0.46246424
7	0xbf1e6bae	-0.61883056
8	0xbeec421c	-0.46144187
9	0xbef306b9	-0.47466066
10	0x3e303e4d	0.17211266
11	0x3f29c546	0.6631664
12	0x3ee620a5	0.4494678
13	0xbf31ac62	-0.6940366
14	0x3ef87817	0.4852912
15	0xbf260a2c	-0.6485927
16	0x3ecd5898	0.40106654
17	0xbf2a00b6	-0.66407335
18	0x3f0987bd	0.53722745
19	0xbf0da3f8	-0.5532832
20	0xbf150670	-0.5821295
21	0x3f09d3b7	0.53838676
22	0x3dff7065	0.124726094
23	0x3f1eb559	0.61995465
24	0x3f1c406f	0.6103582
25	0x3f0ec173	0.5576393
26	0xbf4a6317	-0.7905745
27	0x3f1edc95	0.6205533
28	0xbf19d818	-0.6009536
29	0xbf2be265	-0.67142326
30	0x3f411342	0.7542001
31	0xbf3a7b04	-0.72843957
32	0x3ee6398b	0.44965777
33	0x3f2b8936	0.6700624
34	0xbf14032a	-0.5781733
35	0xbeec0ef8	-0.4610517
36	0xbddcc3b7	-0.10779517
37	0xbeb98223	-0.362321
38	0x3f0a4aa2	0.5402013
39	0xbe0b9906	-0.13632593
40	0xbed173e6	-0.40908736
41	0x3f16212d	0.5864437
42	0x3edafefb	0.4277266
43	0xbf31e154	-0.6948445
44	0x3f20b2f1	0.6277304
45	0x3deaa11c	0.114565104
46	0x3f31af0b	0.6940772
47	0xbe958a0f	-0.29206893
48	0xbf1ce552	-0.61287415
49	0x3f458d27	0.77168506
50	0x3efad1f9	0.4898832
51	0xbf3b4fb7	-0.7316851
52	0x3ef37b5f	0.47555062
53	0x3ee6e9ec	0.45100343
54	0x3f142212	0.5786449
55	0x3f069fda	0.52587664
56	0x3d441cbf	0.047878977
57	0xbee9c75c	-0.45659912
58	0x3f26a80d	0.65100175
59	0xbf30b6bb	-0.69028825
60	0xbe82166d	-0.25407735
61	0x3f161589	0.5862661
62	0xbee6ef17	-0.45104286
63	0x3f193270	0.59842587
64	0x3f1daf27	0.61595386
65	0xbe1dd201	-0.15412141
66	0x3f03399f	0.512598
67	0xbf12b0c8	-0.57300997
68	0xbf08aa8c	-0.53385234
69	0xbf3d657e	-0.7398299
70	0x3f07343b	0.5281407
71	0x3f281dee	0.6567067
72	0x3f0dcb52	0.5538837
73	0xbe44122b	-0.19147556
74	0xbf351f31	-0.7075072
75	0xbf117aa1	-0.5682774
76	0x3f02ad77	0.51045936
77	0xbf3e5756	-0.74352014
78	0x3f205b14	0.62638974
79	0x3f522334	0.82084966
80	0x3f01a296	0.5063871
81	0xbf0953cc	-0.5364349
82	0xbe936699	-0.28789213
83	0xbeecce15	-0.46250978
84	0xbe9a6d36	-0.30161446
85	0xbead2218	-0.33815074
86	0x3f33596a	0.7005831
87	0x3f35676f	0.7086095
88	0x3f2b6b36	0.66960466
89	0x3dd81be2	0.10552193
90	0x3f150760	0.5821438
91	0x3f228126	0.63478315
92	0x3e3d09a1	0.18460704
93	0xbef80279	-0.48439386
94	0xbf17ed22	-0.5934621
95	0x3f4d7dd4	0.80270123

gc2.bias f4 [6]
0	0xbd65b5b5	-0.056081492
1	0xbe35f223	-0.17768149
2	0xbdac70ea	-0.08419974
3	0x3e440e1a	0.19146004
4	0xbe57cfec	-0.2107541
5	0xbe691a8a	-0.2276403
