code/stage_5_code/result/GCN_model.pth (torch, 93663 bytes, 4 tensors)

gc1.weight f4 [1433, 16]
000000 4e 13 11 bd 12 3b 02 3c 28 92 11 3d ff 4b 60 bc
       -0.0354188 0.007948654 0.035539776 -0.013689994
000010 fb 47 12 b9 1c d2 99 3b bf ad f8 3c c4 5e d8 bb
       -0.0001395046 0.0046942364 0.030356286 -0.006603094
000020 93 2f 6b ba 42 7c 1f bc 34 45 e1 3c 3f ec ab 3b
       -0.00089716277 -0.009734215 0.027498819 0.0052466686
000030 a5 b5 37 3c e9 3b 96 3c cb 7e 29 3c d4 88 98 3b
       0.011212741 0.018339114 0.010345171 0.004654983
000040 61 e9 8e 3d 2c 13 fb bd da 5c 89 3d cc cb 22 3d
       0.06978107 -0.12259516 0.06707163 0.039745137
000050 c3 1a 81 3c df ae de 3c 47 22 29 bc 79 60 85 bd
       0.015759831 0.027182994 -0.010323114 -0.06512541
000060 cc 75 2f bd 32 69 f1 3d 00 6b 95 3d bd 02 03 3e
       -0.04283695 0.117876425 0.07295799 0.12794013
000070 c3 d0 28 be c7 b2 3e bd 19 d7 72 3d e1 ab 19 3d
       -0.16485886 -0.046557214 0.059287164 0.037517432
000080 c4 8f 50 bd 8a a7 a8 bc 2f d8 2c 3d 2a 93 21 3e
       -0.050918356 -0.020587701 0.042198356 0.15778795
000090 a4 25 ec bd 3b c0 c7 bb 84 c6 13 bc c3 60 89 3d
       -0.11530617 -0.0060959137 -0.009019498 0.06707909
0000a0 df 89 2d bd a0 eb d6 3d cf 86 8b 3d 7e 09 3f 3c
       -0.042367812 0.10494161 0.06812822 0.011659978
0000b0 bb 70 b8 bd 9a b7 70 3b da de c0 bd d2 80 3f bc
       -0.09005877 0.0036730529 -0.094175056 -0.011688428
0000c0 d1 79 15 3e 9b 5f 4b be 2d e6 f2 3d 6e 80 83 3e
       0.1459725 -0.1986069 0.11860309 0.25683922
0000d0 66 da c8 bc 81 b0 2c bd ab 94 af 3e c2 36 86 bd
       -0.024518203 -0.042160515 0.34293112 -0.06553413
0000e0 b8 44 ee bd bd f6 2b 3e 3f 61 df 3d a8 32 7d 3d
       -0.11634201 0.16793342 0.1090722 0.061815888
0000f0 51 8f a5 bc 24 77 5d bc 4d d8 bf bd af e6 8b bc
       -0.02020994 -0.013517175 -0.09367428 -0.017077772
000100 6b 85 3b 3e 3a ba ef 3e d8 d5 2d be 16 72 e4 be
       0.18312614 0.46821767 -0.16976106 -0.4461829
000110 65 20 3e 3d 78 f0 af 3e 22 eb 33 be 64 82 e9 bd
       0.046417613 0.3436315 -0.17570165 -0.11401823
000120 ca cd f7 bd 95 67 10 3e b7 bc da 3d ec 2a 73 be
       -0.12099798 0.14102013 0.10680526 -0.23746842
000130 4d 97 c4 be 55 42 07 be 20 70 ca 3e 62 37 0c 3f
       -0.38396683 -0.13208897 0.3953867 0.5477201
000140 72 f1 71 bb 92 83 d9 3c b9 6e fe 3c 59 0b c6 bb
       -0.0036917594 0.026551995 0.031058656 -0.006043833
000150 88 b8 1e 3d 97 15 df bc bf 12 42 3d 31 6f 0e bb
       0.0387502 -0.027231975 0.04738116 -0.0021733756
000160 87 a3 f0 3c 81 9c d6 3b 53 45 d2 3c 77 f7 05 3d
       0.02937485 0.0065494184 0.025667822 0.032706704
000170 51 fa 49 bc 4e c0 12 3c e6 51 d5 3c 97 89 63 bc
       -0.0123277465 0.008956982 0.026040029 -0.013887784
000180 c3 5b 8f bd fd f2 ed 3d 9b bf 14 3e 5b b5 b5 bd
       -0.06999924 0.11618612 0.14526217 -0.088724814
000190 95 0b f0 3d 54 89 29 be d4 64 18 3e 6b 0d ed bd
       0.11720959 -0.16556293 0.14882213 -0.11574825
0001a0 64 1d de 3d 3b b6 88 bd a0 af fd 3d ae d0 a5 3c
       0.108454496 -0.06675383 0.123870134 0.020241108
0001b0 25 ec 6c 3d db b5 71 3d e5 ed e3 3d 8e e0 08 be
       0.057842392 0.05901132 0.11129359 -0.13366911
0001c0 b1 93 3a 3d 6d a0 91 bc 54 71 00 bd 99 e0 ec 3c
       0.045551006 -0.017776692 -0.031358078 0.02891569
0001d0 15 33 af 3c 85 28 dd 3c 59 12 94 3c a4 4e 75 bc
       0.021386662 0.02699686 0.018075155 -0.014972363
0001e0 78 f1 90 bc 41 95 46 bc 10 04 5d bd 65 28 fb bc
       -0.017693266 -0.012120546 -0.053958952 -0.03065891
0001f0 c4 ab f7 3c a4 3f dc bc 7c e7 8d 3c 71 89 df 3c
       0.030233271 -0.026885815 0.017322294 0.027287217
000200 e2 9b d6 bb 2a 7e 87 3d 6a 36 8b 3d 36 7a a3 bd
       -0.0065493444 0.06615861 0.06797488 -0.07982294
000210 d9 29 c5 3d 2a 0e 57 bd 03 be 6d 3d 3e 7c 1a bc
       0.096271224 -0.052503742 0.058042537 -0.009429036
000220 d5 d1 87 3d 3b c2 fc bc 0d 1a 80 3d aa 7e 8f 3d
       0.06631819 -0.030854335 0.06254969 0.07006581
000230 21 03 01 3d 0e 6d 2d 3d e6 07 b2 3d 1c 25 e3 bc
       0.031497125 0.04234033 0.08692913 -0.027727656
000240 71 2b 4f bc 87 f5 37 3c 68 98 dc 3b 76 80 cb bc
       -0.012644635 0.011227972 0.0067320354 -0.024841528
000250 ff b0 f5 3b 8a de aa bb c0 cf 22 3b 54 df 06 ba
       0.007497906 -0.005214517 0.0024843067 -0.0005144973
000260 1a 4f 83 3c c0 6d 55 bc b9 c0 45 bc 77 49 6d 3b
       0.01602893 -0.013026655 -0.012069874 0.0036207119
000270 fd 41 e7 3b d5 cf 13 bb 47 7d 2c 3c f3 11 e4 ba
       0.007057427 -0.0022554297 0.010527915 -0.0017400369
000280 34 db 01 3d 4c 71 16 bd 91 85 0c bd 4b df ad 3c
       0.03170319 -0.036729142 -0.034307066 0.021224638
000290 28 38 26 3d f3 fb 33 3d a3 c6 e9 3c 4e 43 00 bd
       0.0405809 0.04394145 0.0285371 -0.031314187
0002a0 68 ab a6 bc f6 6f 7b bd 74 ce 7f bd 33 a7 28 bd
       -0.020345405 -0.06138607 -0.06245275 -0.04117508
0002b0 31 56 98 3d b9 42 f9 3b d1 15 c6 3c 1f 72 19 3d
       0.07438315 0.007606831 0.024180325 0.03746235
0002c0 5e 8e 67 3b 71 c7 be 3a 56 69 83 bc 8b 1a 21 bd
       0.003533266 0.0014555288 -0.016041439 -0.039331954
0002d0 38 cc 0e 3c dd d2 39 3c d7 81 ba bc cd 6c 97 3b
       0.008715682 0.011341778 -0.02276699 0.0046211244
0002e0 33 94 9a 3b f3 98 df bc 8a 91 91 bc 4b 06 79 ba
       0.0047173738 -0.027294612 -0.017769594 -0.0009499534
0002f0 f5 b8 89 3c fc 80 9c bb da 63 42 3c 00 c0 3a 3c
       0.016811827 -0.0047761183 0.011864627 0.011398315
000300 f0 9e 1d 3e 0f 56 69 bd d8 6e 17 bd 50 6c ee bc
       0.15392661 -0.056966837 -0.036970943 -0.029104382
000310 13 69 b4 3d 16 20 b6 bd 6d 09 8f bd 67 95 16 3e
       0.08809104 -0.08892839 -0.0698422 0.1470543
000320 d1 ac e6 3d 67 66 82 3d ef 43 9f 3d f7 58 d6 3d
       0.11263431 0.06367188 0.07776629 0.104661874
000330 45 28 03 be 96 b1 6c bd b2 c6 4f 3d 31 b2 d4 bd
       -0.1280833 -0.057786547 0.0507266 -0.1038555
000340 77 f0 c5 bc 37 c2 da bc 1a 7b 88 bd e9 6e 8c bb
       -0.024162514 -0.026703937 -0.06664105 -0.0042856825
000350 12 88 f4 bc 0a 00 85 3d 39 72 07 bd 04 d1 db 3c
       -0.02985004 0.06494148 -0.033067916 0.026833065
000360 de 13 61 bc d5 63 4f bd bb 33 c0 bd 5d 61 b1 3c
       -0.013737647 -0.050632317 -0.09384867 0.021652872
000370 cc 6e 8d 3c 6b f8 87 3d 00 f5 8e bd b5 bd 9d 3d
       0.017264746 0.06639179 -0.06980324 0.07702199
000380 50 15 ca 3c 0e 93 76 ba 81 99 00 bd a8 45 87 39
       0.024668366 -0.0009406068 -0.031396393 0.00025801104
000390 41 3f 14 bb 48 c5 bb ba 2c 7d a8 3b 3e 3b c9 3c
       -0.002262071 -0.0014325762 0.005141875 0.024564382
0003a0 57 ca 03 3c 0c b6 06 bd 40 56 90 bc bc 04 63 3b
       0.008043847 -0.032888457 -0.017619252 0.0034640273
0003b0 9e 3a d6 3c 3b cc 05 bb 13 28 5a bc eb bf 42 bb
       0.026150998 -0.002041592 -0.0133152185 -0.0029716443
0003c0 a8 ef 75 3c 01 5a 21 bc 14 12 2c 3c 06 56 92 3d
       0.015010752 -0.009848119 0.010502357 0.07145314
0003d0 b5 96 2a bb ec 86 09 bc b5 e4 6d 3d 43 66 8e 3c
       -0.002602977 -0.008393984 0.05807944 0.017382747
0003e0 69 a3 24 bb a0 8d 4a 3d e0 7e a3 3c 99 bc 16 3d
       -0.0025121814 0.04945147 0.01995796 0.036800954
0003f0 ac 1b 84 3b 2f 4f 05 3b 90 84 2c bc c5 f3 19 bb
       0.004031619 0.0020341387 -0.010529652 -0.0023491245

gc1.bias f4 [16]
000000 bc 91 c0 3d 3c 7a 9d 3e 7a 43 e2 3d e6 da c1 3e
       0.094027966 0.3075732 0.110480264 0.3786232
000010 be 10 26 3e 75 6b 53 3e 97 4a 8d 3e d9 80 04 3e
       0.16217324 0.2064646 0.2759597 0.12939776
000020 5c b2 5c 3e b9 bf 3e 3e 9f 5f 8e 3e b6 55 d2 3e
       0.21552414 0.18627824 0.27807328 0.41081017
000030 a5 43 de 3e 8f 48 98 3e 61 86 0c 3e a6 79 96 3e
       0.43410984 0.29742858 0.13723136 0.29389685

gc2.weight f4 [16, 7]
000000 98 79 3e 3f 49 10 11 3f be f4 27 3f 4c db 1d bf
       0.7440429 0.56665474 0.6560782 -0.61662745
000010 d9 b0 fb 3e 77 06 6f bf 6b 9d 0a bf 8c 17 62 bf
       0.49158362 -0.9336924 -0.5414645 -0.8831718
000020 c1 b2 5b bf 9a a5 3d 3f 59 8e 0d 3f a3 f5 23 3f
       -0.8581963 0.7408081 0.5529533 0.64046687
000030 7a 23 0f 3f e0 39 64 bf 9d f7 3b bf bd 3f 07 bf
       0.5591351 -0.8915081 -0.734247 -0.5283163
000040 45 4f 0d bf 7b cb 40 3f 3e bf 91 be 0a 0d 12 bf
       -0.5519908 0.75310487 -0.2846622 -0.57051146
000050 60 93 44 3f b5 4c 3e bf d8 3b 24 3f 9d 5a 3d 3f
       0.76787376 -0.74335796 0.64153814 0.7396639
000060 39 0a 1b bf e2 3f 16 bf 27 71 4a bf 6e 2d 45 3f
       -0.60562474 -0.5869123 -0.79078907 0.77022445
000070 b9 55 73 3f af 6f 37 3f 8e 80 14 bf 64 19 27 3f
       0.9505268 0.7165479 -0.5800866 0.6527312
000080 01 5a ec 3e bc d6 17 bf 91 b2 09 bf 72 1d 64 bf
       0.46162418 -0.59312034 -0.53788096 -0.8910743
000090 af cc 10 3f dc 2a 49 bf 2d b8 55 bf 42 42 39 3f
       0.5656232 -0.78581023 -0.83484155 0.72366726
0000a0 20 79 fe 3e 1a 52 b7 3e e2 99 29 bf b0 7e 4d 3f
       0.49701786 0.35804826 -0.6625043 0.80271435
0000b0 c9 5a 1f be 02 30 50 3f a5 a1 69 bf 80 f6 66 bf
       -0.15561976 0.81323254 -0.91262275 -0.9021988
0000c0 91 98 3c 3f ce d7 fb 3e 66 0f 6c bf 78 0a 1b 3f
       0.736703 0.49188083 -0.92210996 0.6056285
0000d0 ee 1f 48 bf 67 c2 4b bf 90 e0 1a 3f 7f 43 02 be
       -0.7817372 -0.7959351 0.60498905 -0.1272106
0000e0 a5 1a 4f 3f 2b 63 0f bf 3e 00 11 3e 6f 3a d0 3e
       0.8090003 -0.56010693 0.14160249 0.4066958
0000f0 6a 60 4d bf b0 3f f6 3e b7 39 43 bf 36 c6 2d 3e
       -0.8022524 0.48095465 -0.7625994 0.16970143
000100 15 23 63 bf fb 65 5e 3f 49 32 4d bf 84 77 49 3f
       -0.88725406 0.8687436 -0.80154854 0.7869799
000110 39 3a 86 bf c7 1f 28 3f d0 51 91 bf 8b 6a 65 bf
       -1.0486518 0.6567349 -1.1353092 -0.89615697
000120 16 bb 30 3f 98 a0 27 3f 58 9f 51 3f d7 b9 80 bf
       0.6903547 0.6547942 0.81883764 -1.0056714
000130 89 44 14 3f 03 de 4e 3f e6 8f 33 bf 07 5c 32 bf
       0.57917076 0.80807513 -0.70141447 -0.6967167
000140 3f f5 86 3e 8a e6 e6 be 3d 2c f1 3e 10 76 21 3f
       0.26358983 -0.45097762 0.47104064 0.63070774
000150 30 22 3e bf a9 60 34 3f 4d b8 20 3f da 70 ed 3e
       -0.74270916 0.7045999 0.6278122 0.4637516
000160 0f 97 5b bf 81 4e 25 3f aa c7 4c bf 6b 08 f1 be
       -0.8577737 0.6457291 -0.79992163 -0.47076735
000170 8b a1 9d be 4d 1c 29 bf b6 6d ec 3e b1 f7 78 bf
       -0.3078731 -0.6605881 0.46177453 -0.9725295
000180 cf 27 38 3f 43 7b d5 3e 72 ba 0e 3f 60 cc 12 3f
       0.71935743 0.41695604 0.5575324 0.573431
000190 0f f0 69 bf f1 27 29 3f 5a 58 32 3f 29 20 0c bf
       -0.91381925 0.6607657 0.69666064 -0.5473657
0001a0 1c 8f 65 bf 8d 49 2e bf 76 42 d0 3e 42 a5 4c bf
       -0.8967149 -0.6808098 0.40675706 -0.79939663
0001b0 fd 2a 29 bf ed 9a 05 3f 48 e3 0c 3f eb c5 c2 3e
       -0.6608122 0.52189523 0.55034304 0.38041624

gc2.bias f4 [7]
000000 ab 85 9b 3e 20 ee 54 be 83 76 2a bd ba c6 0e bf
       0.30375418 -0.20793962 -0.041616928 -0.5577198
000010 37 17 41 be 7c 95 2e 3e fd 9d 13 3e
       -0.18856512 0.17049211 0.14415736
