code/stage_3_code/result/CNN_model.pth.pth (torch, 249927 bytes, 10 tensors)

layers.0.weight f4 [6, 1, 5, 5]
-0.10062163 -0.058018133 -0.07004315 0.096759565 0.31963816 -0.095862195 -0.118238285 -0.21065752
0.23309575 0.22507532 -0.49994886 -0.26757342 -0.28630838 0.29837427 0.29975736 -0.40911964
-0.25007898 0.05430074 0.1804042 0.28360417 0.0016000821 -0.20382422 0.024637803 0.2278043
0.18837227 -0.13376786 -0.18686911 0.15277162 -0.022213668 -0.35856864 0.12636302 -0.13658576
-0.31992248 -0.6453295 -0.5792657 0.040590446 0.24472241 0.2564354 0.20553997 0.34228545
0.045827184 0.008441479 0.33768624 0.46702603 0.23223117 -0.025158506 0.024919167 -0.14554262
0.0020406824 0.06328426 0.053717002 0.08302273 0.008126453 -0.06378413 -0.29488683 -0.001352892
0.2353028 -0.2447217 -0.2572681 -0.11812717 0.18457468 0.43465292 0.1277431 -0.45889378
-0.37609327 -0.007031886 0.48931602 0.2511501 -0.08616489 -0.32009998 -0.49422544 0.18400541
0.42495477 0.1802853 0.019895652 0.18340063 0.18518838 -0.048825044 -0.13341853 -0.336127
0.19927429 0.13335012 -0.21967927 -0.62680984 -0.34526473 0.39771768 -0.2755585 -0.5897333
-0.40070897 0.16841657 -0.01175179 -1.6734483 -0.7650622 0.12857604 0.31408006 -0.5152076
-0.5898818 0.20593324 0.5977999 0.5147177 -0.044222847 -0.3099707 -0.22392549 0.2686205
0.23582785 0.13467509 0.18156938 0.277181 0.3813842 -0.21985744 -0.053715944 0.1952054
-0.02021094 -0.043544102 -0.3683821 0.2289669 0.023621 0.00020805208 0.13473785 -0.34677926
0.12532602 -0.2930057 -0.1692593 0.06369611 -0.025576565 0.15078539 0.22737792 0.4919059
0.47834644 0.46552098 0.05382316 0.2565616 0.26334387 0.17003432 0.15573151 0.13012694
0.03844075 -0.31664708 -0.13239853 0.22594525 -0.069133386 -0.5026389 -0.5948847 -0.62035924
-0.20637554 -0.11473249 -0.45768732 -0.24523804 -0.10294646 -0.101636246
00000000: b712 cebd 6ca4 6dbd c872 8fbd e129 c63d
00000010: 9da7 a33e 6653 c4bd ea26 f2bd 9bb6 57be
00000020: a7b0 6e3e 257a 663e 4cf9 ffbe 62ff 88be
00000030: 0397 92be 83c4 983e cc79 993e 2178 d1be
00000040: 5a0a 80be 746a 5e3d e1bb 383e 9134 913e
00000050: d9b9 d13a 4cb7 50be 38d5 c93c 8845 693e
00000060: a9e4 403e 71fa 08be 9e5a 3fbe 2a70 1c3e
00000070: 70f9 b5bc 4f96 b7be 4f65 013e 23dd 0bbe
00000080: e1cc a3be 5034 25bf c24a 14bf 2b42 263d
00000090: 8398 7a3e 804b 833e 1279 523e 0a40 af3e
000000a0: 49b5 3b3d 214e 0a3c 36e5 ac3e 091e ef3e
000000b0: 02ce 6d3e 3619 cebc 4823 cc3c 2009 15be
000000c0: f8bc 053b 2e9b 813d 5c06 5c3d d207 aa3d
000000d0: d024 053c 41a1 82bd 68fb 96be 8653 b1ba
000000e0: 38f3 703e 5398 7abe a5b8 83be a8ec f1bd
000000f0: 2501 3d3e d48a de3e 16cf 023e 20f4 eabe
00000100: 4c8f c0be bc6b e6bb a187 fa3e bf96 803e
00000110: 3877 b0bd 25e4 a3be 1e0b fdbe ea6b 3c3e
00000120: ac93 d93e b69c 383e 35fc a23c 60cd 3b3e
00000130: 06a2 3d3e c5fc 47bd de9e 08be d718 acbe
00000140: 8f0e 4c3e ef8c 083e 9af3 60be 9c76 20bf
00000150: 8ac6 b0be a7a1 cb3e 0116 8dbe c3f8 16bf
00000160: ba29 cdbe 6575 2c3e 948a 40bc 8e33 d6bf
00000170: 1edb 43bf 70a9 033e 1acf a03e a5e4 03bf
00000180: 7e02 17bf 2ae0 523e 6a09 193f 8ac4 033f
00000190: 0423 35bd 7bb4 9ebe b94c 65be a088 893e
000001a0: db7c 713e 44e8 093e 53ed 393e abea 8d3e
000001b0: ca44 c33e 4f22 61be 4005 5cbd ede3 473e
000001c0: 6a91 a5bc 4d5b 32bd 949c bcbe 4d76 6a3e
000001d0: d480 c13c 8e28 5a39 b8f8 093e 0d8d b1be
000001e0: 7755 003e d804 96be 4f52 2dbe 1b73 823d
000001f0: f285 d1bc 7c67 1a3e c2d5 683e 17db fb3e
00000200: d3e9 f43e c458 ee3e ac75 5c3d 0b5c 833e
00000210: 02d5 863e 7a1d 2e3e 1578 1f3e ff3f 053e
00000220: 0c74 1d3d 911f a2be 7b93 07be 315e 673e
00000230: ce95 8dbd f1ac 00bf 5d4a 18bf ddcf 1ebf
00000240: 1c54 53be def8 eabd fe55 eabe ae1f 7bbe
00000250: 98d5 d2bd aa26 d0bd

layers.0.bias f4 [6]
-0.13419917 -0.07227482 -0.08356474 0.06736284 -0.17503703 0.20434104
00000000: 826b 09be d204 94bd fe23 abbd 87f5 893d
00000010: e83c 33be c73e 513e

layers.3.weight f4 [16, 6, 5, 5]
0.22065355 0.10658376 0.061596453 0.03102536 -0.3368918 0.18897852 0.15014523 0.07275511
-0.34511432 -0.11020803 0.1633954 0.09651712 -0.14227073 -0.5125051 0.21984613 0.16015391
0.18656257 -0.17878665 -0.4078138 0.21534038 0.09933334 0.13190085 -0.37100697 -0.6030498
-0.0976227 -0.28772882 -0.011464072 0.10875734 0.08015434 0.06359713 0.06864678 0.14370818
0.09757161 -0.06380928 -0.016306179 -0.015613793 -0.00019836263 -0.03490292 -0.023673458 -0.28475487
0.010972472 -0.36391333 -0.14920764 -0.29267898 -0.35168302 -0.03174664 -0.2811657 0.07711871
0.07741454 0.05471576 -0.30410597 -0.04709494 -0.17281555 -0.20016053 -0.016108379 -0.21076435
-0.20743397 -0.03791712 -0.20729014 -0.10816424 -0.22274366 -0.2090787 -0.0071659493 -0.01432801
-0.10001405 -0.042949345 0.034532096 0.102554314 -0.11777319 -0.22945495 0.05491066 -0.021793664
0.08746923 0.10509092 -0.36216998 -0.015603904 0.32537806 0.49728054 0.2987173 -0.14257042
0.25194696 0.41321105 0.15766197 -0.30259395 0.059161156 -0.002813761 0.17722398 0.17288257
0.05048585 0.09273473 -0.13773945 -0.28361022 0.0004719909 0.08886423 0.13242872 -0.32111895
-0.35735652 -0.026270857 -0.13603655 0.03988254 -0.3404532 -0.118647076 -0.23944427 -0.09338035
0.12026643 -0.19177435 -0.13413848 0.20324208 0.18488924 -0.03552921 -0.15816887 0.23610552
0.16311811 -0.006600354 -0.16625266 0.02562769 0.22204646 0.07547904 -0.12403026 -0.027081123
0.114898786 0.00037160667 0.06873481 -0.40120935 -0.46181598 -0.06749679 -0.014010556 -0.655033
-0.3769556 -0.04405421 -0.1911912 -0.54132015 -0.58168197 0.124832384 0.07580975 -0.30354786
-0.8533725 -0.21977611 0.17514342 0.04760912 -0.11480007 -0.21383356 0.06720359 0.17030932
0.16989833 0.1049455 0.16366449 -0.046879932 -0.14042877 -0.018093336 0.17258653 0.13439159
0.060524374 0.0003018299 -0.20003447 -0.009329745 0.0628538 0.22917812 -0.030469421 -0.29213035
-0.05623229 0.17039946 0.11904104 -0.40500262 -0.0135168955 0.044264097 0.23702455 -0.028502975
-0.21937236 0.03401685 0.103044964 0.038116686 -0.39229742 0.12617241 -0.08884689 0.18679824
-0.028542953 -0.14958987 0.050044283 0.102685444 0.032072 -0.24877551 0.009125313 0.042571206
0.08726259 -0.0034218482 -0.1439087 -0.06808556 0.12473058 0.021171523 -0.1156211 -0.3801
-0.30478126 -0.0027516433 -0.19927664 -0.13037889 -0.38465968 0.15228993 -0.13775618 -0.06256329
0.1744933 -0.0059304233 -0.42581028 0.032802496 0.012837882 0.16679198 -0.608087 -0.19946764
0.14203136 0.20113224 -0.19947118 -0.66402406 -0.23276606 0.037133537 0.17579298 -0.37933257
-0.3756804 0.14093596 0.02643527 0.12930904 -0.064969055 0.10193928 -0.024052378 -0.033794414
0.13645777 0.10028592 -0.27973083 -0.11963251 0.30243355 0.32622033 0.1267828 -0.13767299
0.23128617 0.15668182 -0.046667732 0.16039881 0.049038082 0.061974622 0.23292997 0.090451166
0.32121512 0.03342055 -0.20188236 0.058064148 -0.3089319 -0.07838528 -0.911789 0.043447725
-0.1859953 -0.35717425 -0.043595072 -0.31047183 -0.16671553 0.09804549 0.1356269 0.082770355
00000000: 01f3 613e 9648 da3d 904c 7c3d e528 fe3c
00000010: 157d acbe 9683 413e acbf 193e a200 953d
00000020: d3b2 b0be bfb4 e1bd 2051 273e c5aa c53d
00000030: 6baf 11be 8933 03bf 581f 613e 63ff 233e
00000040: 420a 3f3e d913 37be f8cc d0be 3082 5c3e
00000050: 476f cb3d 0411 073e a0f4 bdbe 7961 1abf
00000060: 69ee c7bd 3151 93be ced3 3bbc 2bbc de3d
00000070: f527 a43d 363f 823d af96 8c3d 3d28 133e
00000080: a0d3 c73d 71ae 82bd 8994 85bc ffd0 7fbc
00000090: 90ff 4fb9 5df6 0ebd d7ee c1bc 64cb 91be
000000a0: e2c5 333c d952 babe e3c9 18be 05da 95be
000000b0: cc0f b4be c408 02bd f3f4 8fbe 6af0 9d3d
000000c0: 848b 9e3d a21d 603d c7b3 9bbe a0e6 40bd
000000d0: 8ff6 30be e2f6 4cbe b8f5 83bc 9cd2 57be
000000e0: 9269 54be fb4e 1bbd de43 54be 3785 ddbd
000000f0: ea16 64be ba18 56be 57d0 eabb 08c0 6abc
00000100: 2bd4 ccbd a7eb 2fbd 8771 0d3d ff07 d23d
00000110: 1233 f1bd 3df6 6abe 00ea 603d a088 b2bc
00000120: 1123 b33d e939 d73d 586e b9be 84a7 7fbc
00000130: f497 a63e 8e9b fe3e 79f1 983e fbfd 11be
00000140: 31ff 803e 6690 d33e 2472 213e 98ed 9abe
00000150: f852 723d 1367 38bb 347a 353e 2108 313e
00000160: 40ca 4e3d b5eb bd3d 920b 0dbe 5c35 91be
00000170: 8c75 f739 73fe b53d 659b 073e b469 a4be
00000180: 6ff7 b6be fb35 d7bc 2a4d 0bbe e05b 233d
00000190: e24f aebe 3dfd f2bd e130 75be 323e bfbd
000001a0: 3f4e f63d 7f60 44be 995b 09be b11e 503e
000001b0: 9b53 3d3e 1487 11bd 05f7 21be a5c5 713e
000001c0: 6f08 273e c847 d8bb 233e 2abe 29f1 d13c
000001d0: 2660 633e c194 9a3d 9403 febd 3bd9 ddbc
000001e0: 0e50 eb3d 34d4 c239 d6c4 8c3d 506b cdbe
000001f0: 2573 ecbe c23b 8abd 888c 65bc 3eb0 27bf
00000200: 5300 c1be 3072 34bd a0c7 43be f593 0abf
00000210: 1ce9 14bf 1fa8 ff3d 2442 9b3d a06a 9bbe
00000220: 9f76 5abf fd0c 61be cc58 333e c801 433d
00000230: 4d1c ebbd 2ff7 5abe 09a2 893d 9165 2e3e
00000240: d4f9 2d3e abed d63d aa97 273e 2c05 40bd
00000250: 8fcc 0fbe 7a38 94bc 86ba 303e f39d 093e
00000260: 68e8 773d ec3e 9e39 d6d5 4cbe c9db 18bc
00000270: 7eb9 803d abad 6a3e 029b f9bc 1c92 95be
00000280: d453 66bd 327d 2e3e cacb f33d 815c cfbe
00000290: f875 5dbc 454e 353d 90b6 723e 127f e9bc
000002a0: 26a3 60be 4155 0b3d 3d09 d33d 3e20 1c3d
000002b0: 35db c8be 5733 013e 5cf5 b5bd 0a48 3f3e
000002c0: e9d2 e9bc 162e 19be 3cfb 4c3d bf4c d23d
000002d0: ee5d 033d 02bf 7ebe 5682 153c 255f 2e3d
000002e0: bbb6 b23d 1641 60bb cd5c 13be 7170 8bbd
000002f0: bf72 ff3d e76f ad3c c1ca ecbd 789c c2be
00000300: 4a0c 9cbe ea54 34bb 2d0f 4cbe 0b82 05be
00000310: 1df2 c4be e4f1 1b3e f50f 0dbe 2f21 80bd
00000320: 5fae 323e ff53 c2bb ce03 dabe e95b 063d
00000330: fb55 523c 84cb 2a3e 97ab 1bbf 3f41 4cbe
00000340: ab70 113e 9cf5 4d3e 2c42 4cbe 7bfd 29bf
00000350: 3a5a 6ebe 5619 183d 1303 343e e137 c2be
00000360: 2e59 c0be 8451 103e c88e d83c 9769 043e
00000370: 7f0e 85bd 8bc5 d03d 7e09 c5bc 036c 0abd
00000380: 96bb 0b3e b462 cd3d e138 8fbe e401 f5bd
00000390: 92d8 9a3e 5a06 a73e 5ad3 013e 26fa 0cbe
000003a0: 48d6 6c3e 3371 203e aa26 3fbd 963f 243e
000003b0: 28dc 483d 1ad9 7d3d 3285 6e3e 763e b93d
000003c0: 4f76 a43e fde3 083d 40ba 4ebe acd4 6d3d
000003d0: 522c 9ebe 7688 a0bd 016b 69bf 3ef6 313d
000003e0: 8d75 3ebe 8bdf b6be bf90 32bd 2af6 9ebe
000003f0: 7ab7 2abe 13cc c83d c7e1 0a3e 8183 a93d

layers.3.bias f4 [16]
-0.070740625 -0.017108036 -0.022977302 0.0063478085 0.08912424 -0.002342599 -0.028097209 0.0071186908
-0.03777143 0.052913643 0.12578763 -0.08592637 -0.0082232775 0.029250572 -0.12677792 0.06939227
00000000: 76e0 90bd 2726 8cbc e53a bcbc 4701 d03b
00000010: c586 b63d 4a86 19bb 1e2c e6bc e843 e93b
00000020: 37b6 1abd fabb 583d 79ce 003e 2afa afbd
00000030: edba 06bc e59e ef3c 12d2 01be 891d 8e3d

layers.6.weight f4 [120, 400]
-0.38524497 -0.07895958 -0.33211777 -0.13792665 -0.5558168 -0.1566105 0.018077297 0.0500689
-0.26350644 -0.35616454 0.11778072 0.14536774 0.15427238 0.10559859 0.23430608 -0.027548492
0.02117089 0.005735381 -0.008415528 0.015873166 0.4290244 0.048834667 0.12559512 -0.02198237
-0.15711805 0.16034049 -0.013980041 -0.20222987 0.032534987 -0.5204855 -0.04886599 -0.037922192
0.06156161 0.017221656 -0.37678564 0.048468534 -0.15031393 0.033717338 0.0056723286 0.028146
-0.05780136 -0.024562739 0.045872204 0.20332894 -0.3741104 -0.09332331 0.13186753 0.1552498
0.23706985 0.02875967 -0.234854 -0.09716938 -0.08841424 -0.06936237 0.11568223 0.045003325
-0.1561345 0.015234507 0.07919738 -0.19255853 0.065270804 -0.047289617 -0.055116624 0.21250442
-0.14917569 -0.11406266 -0.23010808 0.044673633 0.09649905 0.09058656 -0.23083839 -0.13181774
0.17246586 0.088697545 0.215242 0.04916152 -0.43237308 -0.33947653 -0.15468183 -0.15928628
0.09223121 -0.18349127 -0.25575882 -0.08225416 0.0066652037 -0.15814853 -0.14114802 -0.2645448
-0.1441374 0.014656162 -0.16416597 -0.31153286 -0.060859133 0.04633127 0.050571863 -0.09670517
0.58491975 0.24734151 0.10502164 -0.15444796 -0.44153193 0.061661407 0.14583553 0.2449426
0.15249851 -0.08082033 -0.061955877 -0.24629098 -0.026684642 -0.5217632 -0.040020134 0.08074594
-0.09284447 0.1612454 -0.11539748 -0.06467454 -0.3435156 0.08591788 0.020005863 0.22932866
-0.038067874 -0.05324149 0.0909456 -0.11082243 -0.26274934 0.14109026 0.17472453 0.17090094
-0.023331944 -0.028414996 0.1386715 0.1772747 0.16564289 0.055899527 -0.079064034 0.11660573
-0.015911639 -0.04111909 0.09732741 -0.018270135 -0.09966989 -0.053214204 -0.034158956 -0.13911617
0.105234794 -0.10736671 0.009879677 -0.05150523 -0.33306432 -0.29988173 -0.1172128 -0.33927992
-0.067903884 -0.07981667 -0.008720477 0.07349284 -0.09779548 -0.043692984 0.12511687 0.1389738
-0.1382257 -0.24848317 -0.19346155 -0.15199584 0.14683396 -0.0011448106 -0.36856893 -0.3661836
-0.13865711 -0.124826066 0.018025246 0.48623773 0.18540363 0.38103247 0.15460475 0.07647208
0.14980054 0.19999318 0.18425147 -0.043388512 0.08092557 0.24011339 0.33474204 0.35417214
0.12437583 -0.11614849 -0.1663573 -0.051482104 0.2357423 0.06257167 -0.12137131 -0.10557677
0.057060927 -0.40871462 -0.10178135 0.027789026 -0.12729052 -0.4005139 -0.31558788 -0.2911191
0.21593907 -0.10742702 -0.009554204 0.26987466 0.018837204 0.11301784 -0.027830308 0.24352519
0.14625193 -0.09744708 0.10806972 -0.04450686 0.16743161 0.12539768 -0.28313816 -0.12470904
-0.041594673 0.098283425 -0.08362719 -0.016949996 -0.41032314 -0.38220477 -0.039864406 -0.02453969
0.12999147 0.19399153 0.06697374 0.087440565 0.056939658 0.0103775235 -0.23850669 -0.05464412
0.011829444 0.26275456 0.0860727 -0.02802113 0.08447999 0.03127102 -0.20897956 -0.33981797
-0.13473602 -0.026526155 -0.1429645 -0.5307365 -0.09080001 -0.07737613 -0.23790039 -0.41480333
-0.25821662 -0.3145129 0.2106416 0.251358 -0.13685596 -0.078055024 -0.06528563 -0.21880889
00000000: d43e c5be 8fb5 a1bd 570b aabe a53c 0dbe
00000010: 034a 0ebf 815e 20be d716 943c 0c15 4d3d
00000020: 51ea 86be 335b b6be 0537 f13d 48db 143e
00000030: 94f9 1d3e 1344 d83d efed 6f3e 60ad e1bc
00000040: 936e ad3c ddef bb3b 48e1 09bc 7108 823c
00000050: 16a9 db3e dc06 483d 029c 003e 5f14 b4bc
00000060: 8ee3 20be 4c30 243e 8b0c 65bc 5915 4fbe
00000070: 6843 053d 8a3e 05bf b427 48bd 4d54 1bbd
00000080: 0728 7c3d 6e14 8d3c 0cea c0be f186 463d
00000090: e5eb 19be 311b 0a3d f1de b93b 7192 e63c
000000a0: 1ec1 6cbd cc37 c9bc 7ee4 3b3d 7635 503e
000000b0: 668b bfbe 4b20 bfbd 4808 073e cef9 1e3e
000000c0: 70c2 723e 6699 eb3c 917d 70be bd00 c7bd
000000d0: 8612 b5bd dc0d 8ebd ceea ec3d 6855 383d
000000e0: b9e1 1fbe 279a 793c 3c32 a23d 102e 45be
000000f0: b3ac 853d c2b2 41bd f8c1 61bd c29a 593e
00000100: 83c1 18be af99 e9bd 74a1 6bbe b3fb 363d
00000110: 4ba1 c53d 7285 b93d e660 6cbe 3bfb 06be
00000120: e49a 303e 0fa7 b53d 6668 5c3e 975d 493d
00000130: 0160 ddbe decf adbe ea64 1ebe f11b 23be
00000140: b7e3 bc3d 23e5 3bbe d2f2 82be de74 a8bd
00000150: c867 da3b b0f1 21be 1b89 10be 6b72 87be
00000160: c198 13be 6620 703c 201b 28be 3c81 9fbe
00000170: 6d47 79bd dcc5 3d3d 7124 4f3d 5c0d c6bd
00000180: 4dbd 153f 1847 7d3e 9615 d73d 9b27 1ebe
00000190: 7910 e2be ac90 7c3d e955 153e 3cd2 7a3e
000001a0: 9228 1c3e 2185 a5bd 72c5 7dbd b433 7cbe
000001b0: c099 dabc 4692 05bf 27ec 23bd 215e a53d
000001c0: 3e25 bebd 841d 253e 8455 ecbd 1674 84bd
000001d0: 47e1 afbe b7f5 af3d 56e3 a33c 22d5 6a3e
000001e0: 0fed 1bbd c013 5abd b041 ba3d dff6 e2bd
000001f0: 1587 86be f779 103e fdea 323e a800 2f3e
00000200: a222 bfbc 91c6 e8bc e7ff 0d3e 8087 353e
00000210: 4a9e 293e e7f6 643d 53ec a1bd fcce ee3d
00000220: 2059 82bc 7e6c 28bd 9853 c73d 40ab 95bc
00000230: ba1f ccbd 23f7 59bd 43ea 0bbd 7874 0ebe
00000240: 5785 d73d 14e3 dbbd 5ede 213c 26f7 52bd
00000250: 6887 aabe 198a 99be 440d f0bd 19b6 adbe
00000260: 3111 8bbd ec76 a3bd 55e0 0ebc 6a83 963d
00000270: ff48 c8bd 6af7 32bd a31e 003e 264f 0e3e
00000280: 0a8b 0dbe 5f72 7ebe c91a 46be cca4 1bbe
00000290: a45b 163e 780d 96ba 11b5 bcbe 6b7c bbbe
000002a0: 21fc 0dbe cfa4 ffbd aea9 933c 27f4 f83e
000002b0: 73da 3d3e b016 c33e b550 1e3e 659d 9c3d
000002c0: 5065 193e 03cb 4c3e 6bac 3c3e 27b8 31bd
000002d0: 4ebc a53d 49e0 753e 4f63 ab3e 0d56 b53e
000002e0: c1b8 fe3d 42df edbd 9159 2abe e6de 52bd
000002f0: 6e66 713e 9325 803d 8591 f8bd a238 d8bd
00000300: b8b8 693d 0b43 d1be be72 d0bd d0a5 e33c
00000310: 7258 02be 2810 cdbe bc94 a1be 900d 95be
00000320: 221f 5d3e b302 dcbd 3c89 1cbc 032d 8a3e
00000330: 7b50 9a3c e675 e73d 63fc e3bc ab5e 793e
00000340: 11c3 153e 5692 c7bd a853 dd3d d34c 36bd
00000350: 3173 2b3e 4068 003e 7cf7 90be 7467 ffbd
00000360: 2d5f 2abd d248 c93d bb44 abbd b8da 8abc
00000370: e015 d2be 58b0 c3be dc48 23bd 7607 c9bc
00000380: 7c1c 053e b7a5 463e 8729 893d 0a14 b33d
00000390: 8f39 693d 7d06 2a3c 193b 74be 83d2 5fbd
000003a0: 49d0 413c c487 863e e246 b03d 928c e5bc
000003b0: d803 ad3d 0b16 003d bdfe 55be 9ffc adbe
000003c0: 3df8 09be 614d d9bc 4965 12be 59de 07bf
000003d0: 5bf5 b9bd 6077 9ebd 299c 73be 1a61 d4be
000003e0: f834 84be d607 a1be 6eb2 573e ffb1 803e
000003f0: f823 0cbe 50db 9fbd 79b4 85bd 700f 60be

layers.6.bias f4 [120]
0.07239437 0.056381 -0.015528015 0.008961837 -0.030937307 -0.09385324 -0.05010062 -0.037339758
-0.039831564 0.06612867 -0.023847105 -0.03831043 -0.05082271 0.014563575 -0.05556886 -0.10680623
-0.012249224 -0.05794367 -0.0664785 -0.021625075 -0.037612654 -0.13692524 -0.05136637 -0.039237123
-0.007569133 0.032572508 0.038927455 -0.029975358 -0.11127744 0.011130427 -0.018463237 -0.08167571
0.00684397 -0.17157389 -0.04639946 -0.07562693 0.0013243415 -0.05637423 -0.04959948 0.03888393
0.025167704 0.047506668 -0.048391674 -0.08715936 0.070296004 0.037270915 0.22501001 0.012448335
0.02671293 -0.0008635114 0.21397655 0.0034308967 -0.018519888 0.008048866 -0.035249338 -0.059593655
0.019001294 -0.07514864 -0.07196779 -0.06418374 -0.045555424 0.06394987 0.040887866 0.019818561
0.004175686 -0.015848882 -0.018555751 -0.012268935 -0.09131339 0.0037056094 0.01373848 0.13348149
-0.029120889 -0.036399376 0.028408192 -0.059389632 -0.10393844 -0.061544884 0.122650065 -0.023191443
-0.07169211 -0.030390104 -0.041090067 0.015852809 0.053237908 -0.08843981 -0.0047832374 -0.0008878008
0.035237927 0.026723312 -0.008202547 0.034373507 -0.014996829 -0.07344419 0.15027758 0.028489403
0.03939956 0.050612934 -0.08382085 -0.07373496 -0.01325154 -0.0045098313 -0.024702886 0.02884533
-0.053570006 -0.052339848 0.14579086 0.049742874 0.025029117 0.063321084 -0.10763723 -0.0041044117
-0.026766125 -0.15961316 0.03970346 0.012231328 -0.053272557 0.06413613 -0.06873816 0.07770729
00000000: 8043 943d c3ef 663d 3769 7ebc abd4 123c
00000010: 3c70 fdbc 2136 c0bd 4f36 4dbd 93f1 18bd
00000020: 6c26 23bd 786e 873d 015b c3bc 66eb 1cbd
00000030: 792b 50bd 109c 6e3c 2c9c 63bd 3abd dabd
00000040: f8b0 48bc 5756 6dbd e125 88bd 1227 b1bc
00000050: ba0f 1abd 2136 0cbe 8b65 52bd 1bb7 20bd
00000060: 7d06 f8bb c06a 053d 6572 1f3d e28e f5bc
00000070: 6de5 e3bd 655c 363c 3740 97bc 9845 a7bd
00000080: 6243 e03b 11b1 2fbe 5c0d 3ebd 4be2 9abd
00000090: 8795 ad3a aae8 66bd d328 4bbd c144 1f3d
000000a0: 802c ce3c 5a96 423d 5936 46bd 9b80 b2bd
000000b0: 5af7 8f3d 63a9 183d 0669 663e 1af4 4b3c
000000c0: 13d5 da3c 455d 62ba ab1c 5b3e e5d8 603b
000000d0: 05b7 97bc 64df 033c 9c61 10bd 7a18 74bd
000000e0: 9aa8 9b3c 88e7 99bd d963 93bd c472 83bd
000000f0: 5398 3abd 26f8 823d 097a 273d 895a a23c
00000100: 31d4 883b 84d5 81bc 3b02 98bc a503 49bc
00000110: 8402 bbbd cfd9 723b 5d17 613c 5faf 083e
00000120: ee8e eebc 8317 15bd 4cb8 e83c 8b42 73bd
00000130: addd d4bd 7d16 7cbd f52f fb3d fbfb bdbc
00000140: 50d3 92bd abf4 f8bc 0f4e 28bd c0dd 813c
00000150: fe0f 5a3d ee1f b5bd b4bc 9cbb 4ebb 68ba
00000160: a555 103d d9ea da3c fa63 06bc 3ccb 0c3d
00000170: 43b5 75bc e869 96bd 5ee2 193e 9c62 e93c
00000180: 6f61 213d 824f 4f3d 44aa abbd 5b02 97bd
00000190: fd1c 59bc 35c7 93bb b55d cabc 0b4d ec3c
000001a0: 396c 5bbd 4f62 56bd 334a 153e 2fbf 4b3d
000001b0: dd09 cd3c 7cae 813d e870 dcbd 4d7e 86bb
000001c0: a244 dbbc a271 23be 18a0 223d e865 483c
000001d0: 5334 5abd ce59 833d 98c6 8cbd 0025 9f3d

layers.8.weight f4 [84, 120]
0.0057948134 -0.092989996 -0.033490848 0.0760795 0.06560665 0.147825 0.024352385 0.04073815
-0.09029708 -0.2369207 -0.07868353 0.023310464 0.0011340617 -0.12062122 0.058575757 -0.05710412
-0.07617175 0.09439902 0.020240085 -0.1539795 -0.12429403 -0.1320477 -0.038493656 -0.05702023
0.17859851 0.0926987 -0.103911705 -0.044818215 0.20742194 -0.1424207 -0.3075331 -0.10179403
0.05765619 -0.21856718 -0.09621366 -0.18790407 0.03573445 -0.24511056 -0.039778557 0.014876332
0.20069516 0.006207868 -0.03297629 0.0008513999 0.123735346 0.108334936 -0.044225298 0.10423066
-0.07060849 0.07877938 0.21198077 -0.017037971 0.08888125 -0.0029129342 -0.1350655 -0.035605077
-0.32976836 0.19016632 0.14416306 -0.06488561 0.08893244 -0.14249386 -0.3824698 -0.005756395
0.081720695 -0.02033576 -0.078510724 0.060019538 0.0027553116 -0.084769644 -0.1270996 -0.2706206
-0.21004705 -0.017273549 0.102099754 0.06489901 -0.1925873 0.04550996 -0.10333639 0.21383592
-0.13481198 -0.5264948 -0.13339795 0.07852461 0.19964425 -0.12088062 -0.10219373 -0.04010572
-0.01569917 0.05350339 0.13629109 0.010029175 0.04614336 0.0061389795 0.1490006 -0.070351034
-0.020842407 0.16587283 0.0010181045 -0.21542653 0.018363778 0.0076591577 -0.042194787 -0.11433946
-0.10439229 0.11648871 -0.45202115 0.39091212 -0.028344765 0.10770506 0.20319182 0.072130196
0.015235978 0.41180095 0.052828107 0.12452923 -0.0041701887 -0.08419029 -0.033871677 0.09239005
-0.0836184 -0.09025352 0.057574783 -0.06229995 0.015768735 0.088612586 0.04967754 0.001109995
-0.049302164 -0.06864813 0.06896073 0.052769467 0.0007719107 -0.079547234 0.029540315 0.0041289204
0.031380333 0.08587696 -0.22794996 0.14885016 -0.06773672 -0.085473485 -0.0016895831 0.0057186857
-0.11338946 0.11091026 0.0054536937 -0.0177548 0.009770779 -0.042487875 -0.10353267 -0.056374878
0.040219948 -0.22832024 0.087127894 -0.09583012 -0.022698082 0.14324291 0.057146773 -0.04020827
-0.15878116 -0.022610942 0.14684503 -0.0143340435 -0.1466527 0.035042554 0.018269546 0.065627135
-0.14701054 -0.05647339 -0.1965277 -0.0588002 0.03871731 -0.044643227 -0.052879516 0.1621626
-0.12546197 0.0009631774 -0.05010856 -0.0066715926 0.0836063 -0.08473142 -0.09186126 -0.08700627
-0.07052421 0.061563104 -0.027927538 -0.055851996 -0.0047422647 -0.0882471 -0.025517927 -0.06151791
0.016822109 0.043589294 -0.047257554 0.028793516 -0.0038048897 -0.08315935 -0.042619985 -0.14635235
0.026726596 -0.017388824 -0.12169215 0.084701195 -0.02095586 -0.1411252 -0.014538482 -0.06239115
-0.04008992 -0.15004876 0.023172084 0.071234554 0.07003668 0.054337576 -0.026501616 -0.068707354
0.032348834 -0.090038724 0.14953913 0.029461168 -0.08175123 -0.08161533 -0.029871885 0.05249245
-0.017567629 -0.09057479 0.024124216 0.04865234 -0.1027247 -0.13572861 -0.026247576 -0.06731663
0.077487804 0.08761898 -0.07113878 -0.14453958 -0.018630594 0.009856939 0.082705274 -0.070501044
-0.06334877 0.20988998 0.11293784 0.08680805 -0.06826809 -0.17966147 -0.0028568793 -0.021886714
-0.042213265 -0.29291177 -0.3049973 -0.0386974 -0.046739563 -0.0019869811 -0.050909135 -0.08900104
00000000: 6be2 bd3b 8a71 bebd b32d 09bd 92cf 9b3d
00000010: c85c 863d 705f 173e a77e c73c 0cdd 263d
00000020: aded b8bd 579b 72be d524 a1bd 96f5 be3c
00000030: cca4 943a 4208 f7bd 22ed 6f3d 02e6 69bd
00000040: efff 9bbd 4654 c13d 89ce a53c cdac 1dbe
00000050: de8d febd 8337 07be 86ab 1dbd 0b8e 69bd
00000060: 87e2 363e d1d8 bd3d a9cf d4bd 4e93 37bd
00000070: 6b66 543e bbd6 11be fa74 9dbe 6379 d0bd
00000080: e628 6c3d 13d0 5fbe ab0b c5bd ed69 40be
00000090: 495e 123d 43fe 7abe d7ee 22bd dcbb 733c
000000a0: 0883 4d3e 5f6b cb3b 2512 07bd 7b30 5f3a
000000b0: f568 fd3d b5de dd3d 9625 35bd e276 d53d
000000c0: 2f9b 90bd 1557 a13d 7d11 593e 3793 8bbc
000000d0: 5f07 b63d ede6 3ebb 9c4e 0abe a1d6 11bd
000000e0: 66d7 a8be f6ba 423e 7b9f 133e bfe2 84bd
000000f0: 3622 b63d e9e9 11be 15d3 c3be 24a0 bcbb
00000100: 2e5d a73d 2e97 a6bc 3bca a0bd 0cd7 753d
00000110: 7592 343b b59b adbd 6626 02be c98e 8abe
00000120: 9316 57be 4281 8dbc ad19 d13d c6e9 843d
00000130: 9b35 45be a768 3a3d 07a2 d3bd cef7 5a3e
00000140: 270c 0abe 5dc8 06bf 7999 08be 83d1 a03d
00000150: 8b6f 4c3e 4290 f7bd f24a d1bd e545 24bd
00000160: 8c9b 80bc 5f26 5b3d e48f 0b3e 6951 243c
00000170: d200 3d3d 7e29 c93b 9d93 183e 3414 90bd
00000180: b2bd aabc 91da 293e eb71 853a c698 5cbe
00000190: a26f 963c acf9 fa3b 71d4 2cbd cf2a eabd
000001a0: a0cb d5bd a291 ee3d 516f e7be a225 c83e
000001b0: 4833 e8bc 7894 dc3d 8411 503e ffb8 933d
000001c0: 53a0 793c 93d7 d23e 4962 583d 2e09 ff3d
000001d0: 14a6 88bb f56b acbd 07bd 0abd ff36 bd3d
000001e0: 2040 abbd d6d6 b8bd 89d3 6b3d 3b2e 7fbd
000001f0: 6f2d 813c 847a b53d ad7a 4b3d 407d 913a
00000200: 11f1 49bd 6497 8cbd 493b 8d3d cc24 583d
00000210: 0d5a 4a3a a9e9 a2bd 88fe f13c e54b 873b
00000220: aa88 003d 42e0 af3d b76b 69be 2d6c 183e
00000230: 8db9 8abd b90c afbd 0075 ddba d063 bb3b
00000240: bc38 e8bd eb24 e33d e6b4 b23b 8472 91bc
00000250: 9e15 203c c407 2ebd f008 d4bd 58e9 66bd
00000260: acbd 243d c8cc 69be 1c70 b23d 9542 c4bd
00000270: 54f1 b9bc 45ae 123e bc12 6a3d 6db1 24bd
00000280: 8797 22be 953a b9bc 8b5e 163e 56d9 6abc
00000290: 202c 16be c888 0f3d 04aa 953c 8567 863d
000002a0: ee89 16be a450 67bd 8f3e 49be 7ad8 70bd
000002b0: 0b96 1e3d d1db 36bd 3198 58bd f40d 263e
000002c0: 1a79 00be be7d 7c3a a23e 4dbd 609d dabb
000002d0: c839 ab3d ab87 adbd c221 bcbd 5830 b2bd
000002e0: ff6e 90bd 9829 7c3d 4bc8 e4bc 10c5 64bd
000002f0: 0065 9bbb e5ba b4bd f90a d1bc 34fa 7bbd
00000300: 85ce 893c b08a 323d 2391 41bd 61e0 eb3c
00000310: 755b 79bb 734f aabd 4b92 2ebd 64dd 15be
00000320: bcf1 da3c 0273 8ebc bc39 f9bd d277 ad3d
00000330: a0ab abbc 2083 10be d032 6ebc dd8d 7fbd
00000340: 5435 24bd 62a6 19be 62d3 bd3c 6ce3 913d
00000350: 646f 8f3d 1491 5e3d eb19 d9bc 71b6 8cbd
00000360: 3680 043d 3966 b8bd c920 193e 8c58 f13c
00000370: 306d a7bd f025 a7bd e2b5 f4bc 5302 573d
00000380: fde9 8fbc 477f b9bd 26a0 c53c ad47 473d
00000390: 5461 d2bd 71fc 0abe 2805 d7bc 4ddd 89bd
000003a0: edb1 9e3d 9471 b33d 35b1 91bd 2f02 14be
000003b0: 309f 98bc 007f 213c 6261 a93d da62 90bd
000003c0: 00bd 81bd 66ed 563e f44b e73d 6bc8 b13d
000003d0: 24d0 8bbd 2df9 37be 7b3a 3bbb c44b b3bc
000003e0: d1e7 2cbd 88f8 95be 9b28 9cbe 2a81 1ebd
000003f0: fc71 3fbd 0338 02bb 1986 50bd 2d46 b6bd

layers.8.bias f4 [84]
0.38992724 -0.18490563 0.010975023 -0.012703051 0.19189937 0.22993557 -0.05362405 -0.23820259
0.103272095 0.06943901 -0.08692097 -0.18737593 0.101266764 -0.3483549 -0.020000063 -0.033757973
-0.02779201 0.17616731 0.11254675 -0.018490432 0.34093806 -0.18371293 0.3313483 0.03970055
0.204263 -0.06405116 -0.12049725 0.13898239 -0.052178144 -0.34103447 -0.036938366 0.08357876
-0.14290832 0.18663467 -0.20067312 -0.00018336377 -0.36939096 -0.07685041 0.1502231 -0.18227398
0.21692742 0.22516377 0.070999816 -0.1392425 -0.11649223 0.009464614 -0.16428389 -0.14023839
-0.04670438 0.10600587 0.090456106 -0.17067684 0.041954573 -0.2692733 -0.1297764 0.010138927
-0.12964137 0.27334574 -0.2650777 -0.15586823 0.19836988 0.03511047 0.17538571 -0.05693275
-0.0038789534 -0.20052087 0.02976895 0.10116686 0.24722879 -0.069693126 0.22581537 -0.0066217505
0.12623756 -0.12760614 -0.1799014 0.043091644 0.082801394 0.069367565 -0.06284906 0.12888052
-0.07618135 -0.17668071 0.2428168 -0.22017516
00000000: 8ba4 c73e e757 3dbe 95d0 333c 7520 50bc
00000010: 4581 443e 3b74 6b3e e4a4 5bbd 61eb 73be
00000020: 5280 d33d 0a36 8e3d 9f03 b2bd 7adf 3fbe
00000030: f364 cf3d 935b b2be 2cd7 a3bc cd45 0abd
00000040: 12ac e3bc 3465 343e e97e e63d 3f79 97bc
00000050: 6f8f ae3e 3e1f 3cbe 7ca6 a93e 0b9d 223d
00000060: 522a 513e 412d 83bd 43c7 f6bd 6651 0e3e
00000070: c0b8 55bd 129c aebe af4c 17bd 572b ab3d
00000080: 8f56 12be 291d 3f3e 417d 4dbe 5645 40b9
00000090: d020 bdbe bf63 9dbd 16d4 193e 08a6 3abe
000000a0: 3922 5e3e 5591 663e 5a68 913d 9695 0ebe
000000b0: 7a93 eebd 7811 1b3c 093a 28be a79a 0fbe
000000c0: 184d 3fbd 9b19 d93d 0d41 b93d e9c5 2ebe
000000d0: 8fd8 2b3d 31de 89be 1be4 04be be1d 263c
000000e0: b5c0 04be f9f3 8b3e 44b8 87be ec9b 1fbe
000000f0: 7921 4b3e ffcf 0f3d 5098 333e 5132 69bd
00000100: 0a36 7ebb 5855 4dbe 03de f33c 9230 cf3d
00000110: 8b29 7d3e 45bb 8ebd 253c 673e 45fb d8bb
00000120: 6b44 013e 2fab 02be 1338 38be dd80 303d
00000130: c793 a93d 9510 8e3d 02b7 80bd 41f9 033e
00000140: f804 9cbd caeb 34be f8a4 783e 9975 61be

layers.10.weight f4 [10, 84]
-0.29968876 0.17028946 -0.11832934 -0.13119534 -0.0006674389 -0.43976772 -0.16032007 -0.38638663
-0.010660489 -0.5262418 -0.26515132 -0.2940945 0.19122712 0.069842726 -0.046874747 -0.3802829
-0.048848953 0.15103513 0.068958975 0.0345326 -0.25449342 -0.17012116 -0.23076363 -0.3002307
-0.08103512 -0.1791197 -0.19879846 -0.13206513 -0.18831107 -0.075473025 0.23474173 -0.10741703
-0.14147697 0.0833515 -0.093730696 -0.3269589 -0.3379437 0.32247493 -0.5249575 0.10148395
0.14626916 -0.33049542 -0.2124947 0.13015845 -0.1984582 0.04279561 0.2218767 -0.4836741
0.17347816 -0.3555348 -0.0017982662 0.14485145 -0.16427557 -0.11459793 0.053568803 0.025925118
-0.17595483 0.1911642 0.047325615 0.024722476 -0.12971371 0.008802968 -0.47803417 0.028035069
-0.27934298 -0.13608187 -0.26888493 0.047969643 -0.55251884 0.11636667 -0.1744484 -0.30805477
-0.29460672 0.058037773 -0.2924483 0.12249877 -0.081495345 -0.14183699 0.19047181 0.083782844
-0.0034279525 0.2603933 0.06041029 0.055131834 0.0026494064 0.14486131 0.026718259 -0.07024299
-0.1578888 0.14106594 -0.25017336 0.0954948 -0.007131066 -0.21811126 0.015656391 0.09145442
0.13275474 0.06251055 -0.28536242 0.1071504 -0.3857181 0.054310642 -0.07757845 0.104287826
0.0030694946 -0.28663552 -0.23655866 -0.4793818 -0.3285396 0.16337772 -0.10130074 -0.124885045
-0.35101447 0.055015627 0.10736659 -0.30168575 -0.3577998 -0.42815053 -0.44835883 0.13174726
0.10166296 -0.09917116 0.2296397 -0.36095294 0.05297835 -0.28799742 0.07340571 0.059408445
0.14156266 -0.1280225 0.011685687 0.044082742 -0.12344638 0.079111114 0.3212421 -0.22977678
-0.31744954 -0.26210225 -0.026764305 -0.026171582 -0.17332205 -0.04342207 0.20551962 0.08854308
-0.25956216 -0.20888886 -0.37372208 -0.019381117 0.06118337 0.14381051 -0.3281326 -0.44407362
0.141783 -0.29093242 -0.380864 0.2358569 -0.21134733 0.061996907 0.011335099 -0.32868952
-0.524607 -0.14309448 0.19768663 0.0049036792 -0.013738461 0.18290369 0.069662094 -0.32313856
0.14280342 0.0979167 -0.12944168 -0.08693011 -0.4263581 -0.010269911 -0.066951215 0.07956354
-0.18729572 -0.4659023 0.05334248 0.057098016 -0.19171436 -0.03677982 -0.3134693 -0.19563171
-0.016492557 0.02884688 0.036211845 0.07574895 -0.3815356 -0.2785126 0.11571157 -0.05210756
0.06056032 0.09497833 -0.035142742 -0.38076624 0.0114434315 -0.2027533 -0.063885234 0.13012066
-0.46577042 0.13491563 -0.17075151 -0.45341063 -0.2758196 -0.6048651 -0.39378893 -0.10062825
-0.27428153 -0.13236487 0.09692393 0.039779034 -0.08243462 0.077975936 -0.040786374 -0.19320202
-0.035716284 -0.3621715 -0.3959308 0.28664255 -0.22032326 -0.10828749 -0.013069134 0.016566865
0.111987054 -0.42612788 -0.27518848 0.078697436 -0.065133266 -0.20061107 0.10034597 -0.10429714
-0.2768647 0.1502673 0.10923291 0.053590585 -0.0038739473 0.019672545 -0.16856475 0.22404839
-0.4407423 0.027459033 -0.22016083 -0.21227255 0.11329598 0.049959194 -0.2119735 0.12504111
-0.04434152 -0.106810324 -0.0642771 -0.3012544 -0.0028555964 0.09950114 -0.062722325 -0.052017197
00000000: ce70 99be 5c60 2e3e a756 f2bd 1258 06be
00000010: 11f7 2eba 3c29 e1be f22a 24be 78d4 c5be
00000020: 55a9 2ebc c8b7 06bf eac1 87be 8e93 96be
00000030: 0bd1 433e b409 8f3d bcff 3fbd 71b4 c2be
00000040: d715 48bd f4a8 1a3e 5d3a 8d3d 0e72 0d3d
00000050: f64c 82be 3e34 2ebe 4d4d 6cbe d7b7 99be
00000060: bef5 a5bd 286b 37be d391 4bbe 153c 07be
00000070: 9ed4 40be 9a91 9abd 2360 703e 76fd dbbd
00000080: 57df 10be 31b4 aa3d e1f5 bfbd 2867 a7be
00000090: f506 adbe 6f1b a53e 9d63 06bf d1d6 cf3d
000000a0: 95c7 153e b236 a9be 3698 59be 4248 053e
000000b0: a038 4bbe 734a 2f3d a533 633e 22a4 f7be
000000c0: 42a4 313e a808 b6be cdb3 ebba f053 143e
000000d0: db37 28be 52b2 eabd f66a 5b3d ea60 d43c
000000e0: 812d 34be 8cc0 433e 81d8 413d ca86 ca3c
000000f0: acd3 04be 533a 103c e5c0 f4be cda9 e53c
00000100: 0b06 8fbe 0c59 0bbe 49ab 89be d17b 443d
00000110: e071 0dbf a651 ee3d 9aa2 32be 5bb9 9dbe
00000120: b1d6 96be 04b9 6d3d c9bb 95be a3e0 fa3d
00000130: 08e7 a6bd b73d 11be 0b0b 433e 5796 ab3d
00000140: 80a7 60bb 4552 853e c870 773d ebd1 613d
00000150: aaa1 2d3b 8656 143e 40e0 da3c 8fdb 8fbd
00000160: 9aad 21be 9773 103e b916 80be c792 c33d
00000170: b8ab e9bb 8f58 5fbe d541 803c 744c bb3d
00000180: dcf0 073e 8805 803d 061b 92be ab71 db3d
00000190: d87c c5be d674 5e3d 73e1 9ebd db94 d53d
000001a0: 9329 493b e4c1 92be 6f3c 72be 8871 f5be
000001b0: 5836 a8be 7d4c 273e c376 cfbd bbc3 ffbd
000001c0: 2bb8 b3be 1158 613d 04e3 db3d 8e76 9abe
000001d0: 8931 b7be 8c36 dbbe 4a8f e5be c1e8 063e
000001e0: ac34 d03d 401a cbbd ab26 6b3e d3ce b8be
000001f0: d4ff 583d 6674 93be bc55 963d 4556 733d
00000200: cdf5 103e 5518 03be 5375 3f3c 1b90 343d
00000210: 75d1 fcbd 0205 a23d d879 a43e 9b4a 6bbe
00000220: bf88 a2be 4432 86be d140 dbbc c965 d6bc
00000230: 567b 31be 57db 31bd bc73 523e 1356 b53d
00000240: 55e5 84be f6e6 55be 8058 bfbe 26c5 9ebc
00000250: 6a9b 7a3d 1043 133e ff00 a8be 9e5d e3be
00000260: 902f 113e 18f5 94be 9b00 c3be 7984 713e
00000270: 6f6b 58be 78f0 7d3d dab6 393c fe49 a8be
00000280: a54c 06bf 5c87 12be 5d6e 4a3e 0baf a03b
00000290: 4817 61bc 1b4b 3b3e 00ab 8e3d 6b72 a5be
000002a0: 0f3b 123e 8d88 c83d 5c8c 04be 6a08 b2bd
000002b0: 9c4b dabe 2143 28bc b81d 89bd 36f2 a23d
000002c0: 73ca 3fbe bf8a eebe a57d 5a3d 9cdf 693d
000002d0: c550 44be 70a6 16bd 0c7f a0be ae53 48be
000002e0: 661b 87bc 4b50 ec3c df52 143d 4422 9b3d
000002f0: a258 c3be 3499 8ebe 30fa ec3d bd6e 55bd
00000300: 190e 783d 0084 c23d d6f1 0fbd cbf3 c2be
00000310: 3b7d 3b3c 909e 4fbe 43d6 82bd 5a3e 053e
00000320: 7679 eebe 5327 0a3e 7cd9 2ebe 7025 e8be
00000330: 3a38 8dbe 70d8 1abf b49e c9be 2f16 cebd
00000340: a16e 8cbe a88a 07be 0e80 c63d 57ef 223d
00000350: 7bd3 a8bd d9b1 9f3d 9d0f 27bd c0d6 45be
00000360: 3d4b 12bd 8b6e b9be 71b7 cabe d0c2 923e
00000370: 6c9c 61be d5c5 ddbd ec1f 56bc 3cb7 873c
00000380: 7859 e53d 6f2d dabe 81e5 8cbe 1f2c a13d
00000390: 9764 85bd fd6c 4dbe 3082 cd3d bd99 d5bd
000003a0: 36c1 8dbe acdf 193e 81b5 df3d cd81 5b3d
000003b0: 0de2 7dbb 5128 a13c 3d9c 2cbe f16c 653e
000003c0: faa8 e1be c4f1 e03c d771 61be fa5d 59be
000003d0: b907 e83d 03a2 4c3d 950f 59be c70a 003e
000003e0: 749f 35bd 5fbf dabd b6a3 83bd 043e 9abe
000003f0: f524 3bbb 41c7 cb3d 9074 80bd fc0f 55bd

layers.10.bias f4 [10]
0.09374875 0.062264238 0.13086827 -0.09608791 0.2800756 -0.13889003 0.1416277 0.21466997
0.38449898 0.34845653
00000000: 58ff bf3d c908 7f3d 5502 063e bdc9 c4bd
00000010: 1266 8f3e 3039 0ebe da06 113e 72d2 5b3e
00000020: 0ddd c43e e568 b23e
