code/stage_3_code/result/CNN_model.pth.pth (torch, 249927 bytes, 10 tensors)

layers.0.weight f4 [6, 1, 5, 5]
0.020955598 -0.09953418 -0.076614805 -0.1481934 0.13966228 0.043704446 0.02894091 0.05307804
0.07050774 0.013919926 -0.16283673 -0.031349648 -0.08735176 0.069630444 -0.009328191 -0.0943878
-0.084243596 0.04209621 -0.065967016 0.056338858 0.08724143 -0.20313694 -0.10993489 0.06022284
0.12379588 -0.052804634 -0.017657932 0.21198756 0.13127767 0.060004454 0.124716595 0.02208218
-0.09813821 -0.1220174 -0.05944336 0.1508188 0.19028981 0.16111197 0.09315047 0.1487976
0.15969071 -0.0027792156 0.027801197 0.08559548 0.2251237 0.22028023 0.086729 -0.008618671
0.06601125 0.15169515 0.117868066 0.100753896 0.065636866 -0.007499718 -0.14677428 -0.048633154
0.048834313 -0.10707173 -0.05958449 0.04692356 0.11132073 0.0021894516 0.13860695 -0.16630627
-0.06013969 0.10512111 0.14680736 -0.022564165 -0.0046798605 -0.12639587 -0.18823455 0.049944997
0.14004856 -0.10488224 0.031473015 -0.018091701 -0.024827898 -0.025733689 0.041320793 -0.22430313
0.06913627 0.01522455 0.13410276 0.016499618 -0.08601056 0.21240976 -0.13630566 0.12320209
-0.14835161 -0.15248019 0.024662782 0.104151465 -0.20291016 -0.13860558 -0.024325417 -0.11795503
-0.19672562 -0.010970322 0.10872409 0.21194893 -0.08362111 -0.0061495625 0.024770493 0.1593043
0.1501844 0.0284741 0.10455652 0.15830787 0.026117852 -0.03363271 -0.11412115 -0.05111997
0.0618036 0.073124826 0.041969553 0.11756183 -0.077509545 -0.013304448 0.22926259 -0.12522325
0.11591927 -0.18093733 -0.026658488 0.063694656 0.032901634 0.19077799 -0.10203102 0.1238629
-0.010352784 0.11562881 0.008638205 -0.12987335 -0.007299345 -0.16635656 -0.095455006 0.14691521
0.028381854 -0.17395481 0.0041389577 0.17255354 -0.0013399243 -0.14730792 -0.086978756 -0.12356108
-0.12233769 0.044837378 0.01952068 -0.14901932 0.1019037 -0.13846633
00000000: 13ab ab3c 93d8 cbbd 39e8 9cbd 03c0 17be
00000010: a103 0f3e 6f03 333d 7d15 ed3c 5c68 593d
00000020: 5d66 903d 6710 643c acbe 26be 7d68 00bd
00000030: 7be5 b2bd 689a 8e3d 45d5 18bc 644e c1bd
00000040: e887 acbd 136d 2c3d b719 87bd 93c3 663d
00000050: a3ab b23d 2103 50be 8b25 e1bd 3aac 763d
00000060: b288 fd3d ac49 58bd 5ea7 90bc 4413 593e
00000070: a76d 063e 3bc7 753d 6a6b ff3d b0e5 b43c
00000080: b0fc c8bd 42e4 f9bd e17a 73bd 3e70 1a3e
00000090: 55db 423e 89fa 243e acc5 be3d 665e 183e
000000a0: f685 233e 8023 36bb 56bf e33c af4c af3d
000000b0: d486 663e 2491 613e f99e b13d 5435 0dbc
000000c0: e830 873d f955 1b3e d064 f13d 0f58 ce3d
000000d0: 9f6c 863d 32c0 f5bb ff4b 16be 8f33 47bd
000000e0: 7d06 483d 6c48 dbbd de0e 74bd eb32 403d
000000f0: 1ffc e33d e77c 0f3b fbee 0d3e 314c 2abe
00000100: 0955 76bd bd49 d73d ab54 163e 7cd8 b8bc
00000110: 8459 99bb eb6d 01be 8fc0 40be 2093 4c3d
00000120: e468 0f3e 80cc d6bd d9e9 003d 0c35 94bc
00000130: e063 cbbc 75cf d2bc fe3f 293d b8af 65be
00000140: 5197 8d3d 6470 793c 3c52 093e 352a 873c
00000150: 4e26 b0bd f281 593e b693 0bbe 6151 fc3d
00000160: 7ce9 17be c423 1cbe 9a09 ca3c 5d4d d53d
00000170: aec7 4fbe 9fee 0dbe 1946 c7bc 6892 f1bd
00000180: 7172 49be debc 33bc bcaa de3d 2409 593e
00000190: 8b41 abbd 4582 c9bb 7deb ca3c ab20 233e
000001a0: f0c9 193e 8442 e93c bb21 d63d 751b 223e
000001b0: 1bf5 d53c 74c2 09bd 59b8 e9bd 2c63 51bd
000001c0: c625 7d3d 78c2 953d 44e8 2b3d 42c4 f03d
000001d0: 53bd 9ebd e6fa 59bc d0c3 6a3e 863a 00be
000001e0: 1567 ed3d a347 39be e762 dabc 5872 823d
000001f0: ddc3 063d 4e5b 433e a4f5 d0bd d5ab fd3d
00000200: b99e 29bc ccce ec3d 4287 0d3c 85fd 04be
00000210: 582f efbb 6059 2abe ea7d c3bd f170 163e
00000220: 1081 e83c 3621 32be 18a0 873b e0b1 303e
00000230: 66a0 afba e3d7 16be eb21 b2bd 970d fdbd
00000240: 2f8c fabd 66a7 373d d5e9 9f3c 8598 18be
00000250: e3b2 d03d 1eca 0dbe

layers.0.bias f4 [6]
-0.04803967 0.19154556 -0.061685227 0.04655943 0.00093808403 0.09199246
00000000: 3fc5 44bd 8524 443e a6a9 7cbd 1ab5 3e3d
00000010: c1e9 753a 8b66 bc3d

layers.3.weight f4 [16, 6, 5, 5]
0.07208644 0.08403424 0.033540104 0.02437422 -0.031386595 0.025393112 0.052170955 0.08176476
-0.07669426 0.01882104 0.054038007 0.0062028347 -0.00340413 0.06260183 -0.015390835 0.06449015
0.09126179 0.08384216 -0.0028827633 0.038941637 -0.0795037 0.034976453 -0.014917405 -0.03129234
-0.08197895 -0.047051497 -0.030137734 -0.027417092 0.02325079 -0.004616306 0.016158171 0.067870624
0.058722533 0.044699714 0.020637589 -0.0115964115 -0.03665137 -0.013510833 0.10274942 -0.056458086
0.0951676 0.003124218 0.004384236 -0.023322387 -0.105762295 -0.0028369084 0.05366266 0.09421835
0.06814333 -0.003085882 0.07184261 0.033001132 0.022778312 -0.07109482 -0.0245907 0.03365066
-0.02332414 0.020315683 0.01803113 -0.012407463 0.102713756 -0.05333461 -0.031100383 -0.024939973
0.07234737 0.045870893 0.02874584 -0.0279917 -0.04814381 -0.04324721 0.05893992 -0.042692203
0.01685623 0.05545635 -0.035924967 0.04025807 0.026802065 0.0124287605 -0.024641482 -0.013830658
0.06703185 0.09612693 -0.010342529 0.0024580911 -0.071404435 -0.068548836 0.007993385 -0.048298128
-0.008950925 0.044310782 -0.009461088 -0.038189016 -0.029004803 0.022750393 -0.044159688 0.0033076424
-0.057509597 -0.017707832 -0.05443954 -0.07139839 -0.04504592 0.025366748 -0.07056868 -0.04170509
0.028233957 0.083322324 0.048241932 0.055273235 0.055280477 -0.05415479 -0.05695577 0.08123199
0.01330601 0.038614817 -0.08885493 0.011577739 0.00913067 0.083160974 0.02071378 -0.0163285
0.06471031 -0.027897503 0.0993109 -0.05879383 -0.08487322 -0.03629052 0.10223864 -0.055742875
0.07837755 -0.033334717 0.07410855 0.028564578 -0.028034946 0.017026927 -0.016545618 0.034201987
-0.03803601 -0.057085264 -0.00072977017 0.02282343 -0.046249542 0.044588808 0.05080847 0.04896092
-0.06313347 0.08686362 0.08718587 -0.06570354 -0.007439594 -0.032485384 0.072303325 0.059789047
0.0071222535 -0.040866867 0.046211213 0.045809392 -0.001349906 0.054608244 0.041677337 0.0010324261
-0.019514332 0.071044415 0.0310023 -0.05809686 -0.04004158 -0.055019047 0.07333896 0.076179445
-0.022556126 -0.047340605 0.07349924 -0.034513753 -0.053907055 0.051493015 -0.110256076 0.035706237
-0.017714122 0.013530849 0.052036088 -0.056501057 -0.08917158 -0.04720836 0.014627001 0.036967926
0.09467708 -0.012556121 0.04211004 0.08860062 0.04627996 0.022798954 -0.08730399 -0.0146318795
-0.011871582 0.08312657 -0.009039061 -0.062039714 -0.038589645 0.04265491 -0.04052652 0.089512
0.011069392 0.023800343 -0.037089705 0.023451937 -0.09105742 0.050139878 -0.01668665 0.09448251
0.00039892975 0.0967375 -0.0107365865 -0.05197415 -0.05216568 -0.04760153 0.07547129 0.055285264
-0.010605234 0.008236876 0.03410117 0.057896744 0.017007563 0.0968443 -0.030333089 0.055179536
0.011311495 -0.096337914 0.010375902 0.056307204 0.083905905 -0.041486993 0.090200305 -0.030490352
0.03772658 0.012111235 0.044416294 -0.0055423435 0.03820133 0.03614673 -0.07567064 -0.1160469
0.07633892 -0.013200553 0.039544035 0.04564775 -0.025691213 0.10706492 -0.007515182 0.028997703
-0.075353555 0.04298383 0.012912374 -0.04692912 0.050834086 0.012820033 -0.004693526 0.078339204
00000000: 0ea2 933d 251a ac3d 5961 093d 72ac c73c
00000010: 3b8f 00bd 3705 d03c 36b1 553d 4874 a73d
00000020: e111 9dbd 952e 9a3c f556 5d3d 2641 cb3b
00000030: d317 5fbb 6335 803d d729 7cbc 6913 843d
00000040: 76e7 ba3d 70b5 ab3d beec 3cbb 4481 1f3d
00000050: d6d2 a2bd 7843 0f3d 2268 74bc 662c 00bd
00000060: 94e4 a7bd 12b9 40bd 69e3 f6bc cf99 e0bc
00000070: 7178 be3c 6244 97bb 245e 843c c1ff 8a3d
00000080: 0a87 703d 0c17 373d 2910 a93c e0fe 3dbc
00000090: bf1f 16bd 8a5c 5dbc 4a6e d23d 9840 67bd
000000a0: 3be7 c23d aebf 4c3b a3a9 8f3b 970e bfbc
000000b0: e799 d8bd 6deb 39bb 61cd 5b3d 8df5 c03d
000000c0: bb8e 8b3d 823c 4abb 3822 933d 322c 073d
000000d0: 9599 ba3c 299a 91bd 7072 c9bc 46d5 093d
000000e0: 4412 bfbc 136d a63c 05b6 933c ac48 4bbc
000000f0: 975b d23d 6475 5abd 3bc6 febc ea4e ccbc
00000100: dc2a 943d 1ee3 3b3d 657c eb3c da4e e5bc
00000110: 7232 45bd fd23 31bd fc6a 713d 05de 2ebd
00000120: 1416 8a3c 3326 633d 0f26 13bd a5e5 243d
00000130: 0190 db3c 00a2 4b3c efdc c9bc fc99 62bc
00000140: ff47 893d 32de c43d b673 29bc ed17 213b
00000150: 7d3c 92bd 5563 8cbd b0f6 023c 42d4 45bd
00000160: e7a6 12bc 397f 353d ae02 1bbc 166c 1cbd
00000170: 7b9b edbc 085f ba3c cae0 34bd 08c5 583b
00000180: 2f8f 6bbd 0410 91bc fffb 5ebd 5239 92bd
00000190: 1282 38bd edcd cf3c 5086 90bd f5d2 2abd
000001a0: e64a e73c e5a4 aa3d 5599 453d 3066 623d
000001b0: c86d 623d 6ad1 5dbd 744a 69bd f55c a63d
000001c0: 7301 5a3c 922a 1e3d 93f9 b5bd 8fb0 3d3c
000001d0: ce98 153c 4d50 aa3d f2af a93c 59c3 85bc
000001e0: d786 843d 4e89 e4bc 8363 cb3d cdd1 70bd
000001f0: 03d2 adbd 5ea5 14bd 7e62 d13d a452 64bd
00000200: 6984 a03d fc89 08bd 39c6 973d 4300 ea3c
00000210: 8ba9 e5bc 0e7c 8b3c ad8a 87bc 6217 0c3d
00000220: a6cb 1bbd 3dd2 69bd 0c4e 3fba 34f8 ba3c
00000230: 2970 3dbd c1a2 363d 8b1c 503d 3f8b 483d
00000240: 1f4c 81bd 8ee5 b13d 818e b23d 948f 86bd
00000250: d6c7 f3bb 650f 05bd c413 943d 5ce5 743d
00000260: cb61 e93b 0464 27bd f847 3d3d a1a2 3b3d
00000270: 54ef b0ba e5ac 5f3d dbb5 2a3d 7952 873a
00000280: 85dc 9fbc bc7f 913d 89f8 fd3c f9f6 6dbd
00000290: a402 24bd a75b 61bd bd32 963d f803 9c3d
000002a0: a0c7 b8bc 39e8 41bd c586 963d 4b5e 0dbd
000002b0: a5cd 5cbd 57ea 523d f0cd e1bd b440 123d
000002c0: 351d 91bc 7eb0 5d3c cb23 553d a76d 67bd
000002d0: 979f b6bd 8e5d 41bd 17a6 6f3c ae6b 173d
000002e0: 0fe6 c13d 30b8 4dbc 947b 2c3d 3e74 b53d
000002f0: 0e90 3d3d dfc4 ba3c 6fcc b2bd 8dba 6fbc
00000300: 0681 42bc 433e aa3d 9218 14bc 5b1d 7ebd
00000310: 2d10 1ebd eab6 2e3d 23ff 25bd 1152 b73d
00000320: 655c 353c f0f8 c23c 60eb 17bd 471e c03c
00000330: 507c babd 795f 4d3d 71b2 88bc 0c80 c13d
00000340: 7227 d139 4f1e c63d 82e8 2fbc d9e2 54bd
00000350: aeab 55bd d2f9 42bd b190 9a3d cd72 623d
00000360: 93c1 2dbc f6f3 063c abad 0b3d 2325 6d3d
00000370: 7253 8b3c 4e56 c63d 197d f8bc f003 623d
00000380: d953 393c d04c c5bd b0ff 293c 62a2 663d
00000390: dcd6 ab3d 44ee 29bd f0ba b83d e7c6 f9bc
000003a0: 3087 1a3d 346e 463c dced 353d 8c9c b5bb
000003b0: ff78 1c3d 980e 143d 35f9 9abd ffa9 edbd
000003c0: 9457 9c3d 2247 58bc edf8 213d 23f9 3a3d
000003d0: 6176 d2bc da44 db3d ea41 f6bb 978c ed3c
000003e0: f752 9abd d00f 303d 6c8e 533c c038 40bd
000003f0: 6737 503d 1e0b 523c 26cc 99bb 4e70 a03d

layers.3.bias f4 [16]
-0.078625895 0.059862558 -0.063522354 0.04084721 -0.037522305 -0.0849054 0.035664838 0.09348746
-0.05334193 0.045354754 0.10871 0.08164118 -0.004140089 0.0028777942 0.006336297 0.07807154
00000000: 9d06 a1bd 7132 753d 0218 82bd 674f 273d
00000010: fdb0 19bd e2e2 adbd 4b15 123d 5a76 bf3d
00000020: 117d 5abd e8c5 393d 59a3 de3d 7e33 a73d
00000030: 95a9 87bb 6099 3c3b b6a0 cf3b f9e3 9f3d

layers.6.weight f4 [120, 400]
0.012134911 -0.044297498 0.027678927 -0.02339953 -0.0010691913 -0.037690185 -0.015518424 0.055080425
0.00094486336 0.054490678 0.030924868 0.054594588 0.056575097 0.031837925 0.048242856 0.06585516
0.025888383 0.021725612 -0.027747557 0.0030976841 -0.009173905 -0.024657097 0.021415101 -0.02411969
0.0063484833 0.018741356 -0.0176861 0.015127229 0.027121477 0.056781404 -0.001533205 0.012562572
0.04866641 -0.0038049892 0.024691012 0.04656401 0.030295769 0.06428299 0.046515226 0.00045212358
0.040152855 0.054247238 0.027722232 -0.003396649 -0.0041070934 0.016605755 0.03573787 0.013679779
-0.023924768 0.035519887 0.008749943 -0.045642547 -0.0005521005 0.029059462 -0.035917073 -0.0070217783
-0.026107801 0.04922521 0.03742362 0.04771846 -0.028469844 0.011046783 -0.026099075 0.015356199
0.0065033957 0.03327564 -0.025189502 0.009461993 0.01183247 0.008745287 -0.026805498 0.00054238405
-0.044309765 -0.0010934661 0.021422323 0.0075733457 -0.0065958584 0.082503594 0.08162791 0.033575922
0.082883134 0.022517959 0.03951267 0.046434145 0.016836148 0.080202274 0.02425225 0.08425924
0.010614094 -0.017918866 0.025058456 0.011861365 0.0024014432 0.07278143 0.035378583 0.03244052
0.008617791 -0.005300562 0.08005399 -0.010063712 -0.035957985 0.044460718 -0.042314816 0.022182846
0.00998616 -0.040683426 0.021872355 0.024084114 -0.03839604 -0.013571314 -0.023588706 -0.032452095
-0.036212806 0.040690992 -0.002948002 -0.025383797 -0.03073258 0.035006166 0.04698364 -0.0035063166
0.0100027695 -0.021934872 0.03426005 0.02923186 0.019977918 0.048718557 0.03450081 0.0066757696
0.01882847 -0.012557283 0.038954664 0.042688552 -0.028413218 0.017871749 -0.012747057 -0.011266918
0.037127048 0.0344105 0.04281898 0.012227293 0.06438519 -0.020052223 -0.024232093 0.028537955
-0.0041364026 0.043908924 0.030544499 0.0030267814 0.019202849 0.00701828 0.035007495 0.050088197
0.011199597 0.032185454 -0.021374496 0.03110562 -0.025426077 -0.00059578585 0.0065585417 0.030389236
-0.018944409 0.050789837 -0.033475623 0.058333028 0.018733574 0.016485147 0.00085137895 -0.008457551
-0.04728013 0.0014269922 0.052669153 0.033468828 -0.03779065 0.025706422 0.0011665937 0.051298834
-0.006469994 -0.0035819013 -0.01208439 -0.005691138 0.014767869 0.07410386 0.00098342 -0.032230005
0.068632506 0.01734182 0.07954524 0.0072415587 0.018443597 0.069935665 0.031513095 0.044607572
0.03346081 0.0660908 0.05490097 -0.024593469 0.025587194 0.03849636 0.06440135 0.041789103
0.0058672386 0.005606062 0.0720717 0.027236179 0.059369233 0.05522521 0.010273688 0.025247645
0.04836149 -0.013688511 0.047163893 -0.015917983 0.03243293 0.015499712 -0.00031081817 0.021146681
0.039843056 0.0697294 -0.023644697 -0.024093177 0.03196564 0.08733349 0.035519652 0.014611215
0.0018059724 0.010530995 0.053447332 0.03567945 0.041623216 -0.026768887 -0.028781174 0.013639393
0.06795467 0.02542019 0.021296475 -0.00946583 0.030144237 0.03910077 0.04879192 -0.020405738
0.049045898 0.011003969 0.010462722 -0.026092503 0.051910304 -0.011485892 -0.0124088535 0.032703664
0.042427268 -0.0428833 0.03708784 0.040721927 -0.012032781 -0.0010682147 0.03345806 0.049134493
00000000: 81d1 463c 4b71 35bd ebbe e23c 5fb0 bfbc
00000010: 1b24 8cba 0661 1abd fd40 7ebc 039c 613d
00000020: b5b0 773a 9e31 5f3d 2656 fd3c 939e 5f3d
00000030: 4abb 673d 7c68 023d 4d9a 453d 12df 863d
00000040: e013 d43c e9f9 b13c d84e e3bc 8402 4b3b
00000050: 254e 16bc aefd c9bc b96e af3c a896 c5bc
00000060: f006 d03b 7987 993c 71e2 90bc 32d8 773c
00000070: dc2d de3c 9e93 683d d3f5 c8ba 3fd3 4d3c
00000080: 6e56 473d 205d 79bb ce44 ca3c e7b9 3e3d
00000090: d52e f83c cda6 833d c086 3e3d 000b ed39
000000a0: 5277 243d 5a32 5e3d bc19 e33c 509a 5ebb
000000b0: cc94 86bb cb08 883c df61 123d 2721 603c
000000c0: e0fd c3bc 4d7d 113d ec5b 0f3c aef3 3abd
000000d0: d6ba 10ba 1c0e ee3c c81d 13bd f216 e6bb
000000e0: 07e0 d5bc 60a0 493d 8249 193d 6f74 433d
000000f0: 9739 e9bc 91fd 343c bacd d5bc 9198 7b3c
00000100: 701a d53b 0a4c 083d 375a cebc 7a06 1b3c
00000110: fadc 413c 6448 0f3c 3497 dbbc c72e 0e3a
00000120: 287e 35bd a252 8fba de7d af3c d429 f83b
00000130: 1222 d8bb a5f7 a83d 892c a73d e886 093d
00000140: a2be a93d 9577 b83c 0ad8 213d bb31 3e3d
00000150: f6eb 893c 1741 a43d a8ac c63c 1c90 ac3d
00000160: bde6 2d3c 96ca 92bc 6447 cd3c 2c56 423c
00000170: 8861 1d3b 6e0e 953d 22e9 103d 5ae0 043d
00000180: a331 0d3c 56b0 adbb 59f3 a33d 44e2 24bc
00000190: ae48 13bd 711c 363d 4d52 2dbd cdb8 b53c
000001a0: fe9c 233c aaa3 26bd a72d b33c 0c4c c53c
000001b0: 2b45 1dbd 375a 5ebc 1a3d c1bc 7dec 04bd
000001c0: e153 14bd 99ab 263d 4433 41bb aef1 cfbc
000001d0: e4c2 fbbc a062 0f3d eb71 403d 3bca 65bb
000001e0: a8e2 233c c3b0 b3bc 4454 0c3d a777 ef3c
000001f0: bba8 a33c 1c8d 473d b950 0d3d 6ac0 da3b
00000200: 2a3e 9a3c 10bd 4dbc ed8e 1f3d 31da 2e3d
00000210: d6c2 e8bc c667 923c 08d9 50bc e198 38bc
00000220: 8812 183d 06f2 0c3d f462 2f3d fc54 483c
00000230: 62dc 833d 8f44 a4bc 6282 c6bc 6ec8 e93c
00000240: a98a 87bb d8d9 333d 7538 fa3c f75c 463b
00000250: 4b4f 9d3c 9af9 e53b 0564 0f3d 4829 4d3d
00000260: 847e 373c e5d4 033d 9119 afbc 37d1 fe3c
00000270: 594a d0bc 832e 1cba 09e9 d63b d9f2 f83c
00000280: 4e31 9bbc 0109 503d bc1d 09bd 9dee 6e3d
00000290: 2777 993c dc0b 873c 132f 5f3a 8a91 0abc
000002a0: cfa8 41bd ea09 bb3a 9cbb 573d 9c16 093d
000002b0: 5eca 1abd 4696 d23c 64e8 983a ba1e 523d
000002c0: 3e02 d4bb 55be 6abb 9bfd 45bc ba7c babb
000002d0: eff4 713c c4c3 973d 19e6 803a 9c03 04bd
000002e0: 338f 8c3d 6f10 8e3c 9de8 a23d 994a ed3b
000002f0: 0717 973c 6e3a 8f3d e013 013d 6eb6 363d
00000300: 340e 093d 9d5a 873d d7df 603d 3e78 c9bc
00000310: 3c9c d13c 5cae 1d3d dbe4 833d 0d2b 2b3d
00000320: f741 c03b 0eb3 b73b 549a 933d 681e df3c
00000330: 272d 733d d433 623d f852 283c 26d4 ce3c
00000340: b316 463d c745 60bc ed2e 413d 6e66 82bc
00000350: 64d8 043d 81f2 7d3c 4ff5 a2b9 ce3b ad3c
00000360: 7932 233d 4ace 8e3d 86b2 c1bc 0e5f c5bc
00000370: 67ee 023d e7db b23d 0e7d 113d e163 6f3c
00000380: 61b6 ec3a 328a 2c3c 97eb 5a3d 9d24 123d
00000390: 1b7d 2a3d 6d4a dbbc 7fc6 ebbc c377 5f3c
000003a0: d12b 8b3d 013e d03c f275 ae3c 9216 1bbc
000003b0: 0cf1 f63c 2128 203d 09da 473d ef29 a7bc
000003c0: 5ae4 483d fe49 343c d66b 2b3c f2bf d5bc
000003d0: e69f 543d 532f 3cbc 814e 4bbc 47f4 053d
000003e0: 37c8 2d3d 66a6 2fbd 6be9 173d 09cc 263d
000003f0: 2425 45bc 5603 8cba 520b 093d 4041 493d

layers.6.bias f4 [120]
0.052598745 -0.010890103 0.08035877 -0.042219784 0.027206797 -0.019917814 0.034772538 -0.0360739
0.010449316 0.053863015 -0.011608206 -0.026847243 -0.013236551 0.05244804 -0.028949259 -0.05154534
0.024144763 0.025558498 -0.020075483 -0.0119521255 0.074931346 -0.04638651 -0.04718573 -0.035588972
-0.0093092 0.063897565 -0.0062246257 -0.017013313 0.054547776 0.06979989 0.049674973 -0.037139393
0.027086124 -0.026024563 -0.015032445 -0.052295476 0.023457263 -0.07247379 -0.039097976 -0.03095952
0.041944895 0.024601957 -0.058018256 -0.034567565 -0.020394295 0.06791915 0.039428454 0.02054106
-0.05863348 0.034739956 0.0729992 -0.04403007 0.006616851 0.010889368 0.04220264 -0.014909745
0.014668374 0.011874669 -0.021440927 -0.05244901 -0.025376117 0.014881438 -0.004121788 0.04373365
0.03856686 0.018417526 -0.04795135 -0.004956021 -0.06008239 0.018675901 0.013085394 0.049797494
-0.05614922 -0.0020823136 0.013268472 -0.036432806 -0.030757431 -0.03516749 -0.0289821 0.060880993
0.015998483 0.018138604 0.009192975 0.016763931 0.011383021 0.02737952 0.01625587 0.04952552
0.004203329 -0.0386755 0.026768398 0.011894984 -0.025556682 -0.03104987 -0.0011708277 0.019438814
-0.005255811 0.012084854 0.0079513565 -0.009421346 0.027843328 0.028529853 0.017593477 0.013588127
-0.043624185 -0.026635196 0.053030882 -0.057675835 -0.030964704 0.034052327 -0.027928779 -0.002706812
0.028606264 -0.008252607 0.036674093 -0.058836594 -0.037757944 0.013919977 0.001412628 -0.022859456
00000000: c871 573d 676c 32bc 2493 a43d a7ee 2cbd
00000010: cae0 de3c af2a a3bc a66d 0e3d 3ac2 13bd
00000020: 9c33 2b3c 779f 5c3d 5830 3ebc c0ee dbbc
00000030: 1ede 58bc c2d3 563d ff26 edbc 3521 53bd
00000040: 3dcb c53c 0e60 d13c 5775 a4bc d9d2 43bc
00000050: 9b75 993d c8ff 3dbd d345 41bd bec5 11bd
00000060: 9d85 18bc badc 823d f2f7 cbbb 815f 8bbc
00000070: 7d6d 5f3d 3ff3 8e3d fc77 4b3d 7a1f 18bd
00000080: b8e3 dd3c 7731 d5bc a54a 76bc c833 56bd
00000090: 7229 c03c 236d 94bd 3325 20bd d29e fdbc
000000a0: 69ce 2b3d 0b8a c93c 8da4 6dbd b896 0dbd
000000b0: f011 a7bc 3219 8b3d bb7f 213d ba45 a83c
000000c0: a929 70bd 7c4b 0e3d 9b80 953d e058 34bd
000000d0: 2bd2 d83b 5269 323c addc 2c3d 0148 74bc
000000e0: 9f53 703c f98d 423c e2a4 afbc c6d4 56bd
000000f0: 93e1 cfbc 46d1 733c 1010 87bb 0e22 333d
00000100: 49f8 1d3d 5ae0 963c a368 44bd 1e66 a2bb
00000110: f418 76bd 34fe 983c 1f64 563c 75f8 4b3d
00000120: b9fc 65bd 6d77 08bb 0164 593c 913a 15bd
00000130: 02f7 fbbc c90b 10bd de6b edbc 595e 793d
00000140: 400f 833c 6997 943c 229e 163c 8354 893c
00000150: da7f 3a3c 044b e03c 082b 853c 46db 4a3d
00000160: 14bc 893b 336a 1ebd 6649 db3c 2ee3 423c
00000170: 3f5c d1bc 4c5c febc 7576 99ba 263e 9f3c
00000180: f038 acbb 8dff 453c 6846 023c fd5b 1abc
00000190: b117 e43c 70b7 e93c 3220 903c bca0 5e3c
000001a0: 46af 32bd 0e32 dabc e936 593d 7f3d 6cbd
000001b0: b1a9 fdbc 747a 0b3d e5ca e4bc c564 31bb
000001c0: af57 ea3c f135 07bc 9337 163d a4fe 70bd
000001d0: 13a8 1abd 9d10 643c ee27 b93a c143 bbbc

layers.8.weight f4 [84, 120]
0.037974354 -0.043367635 -0.07958618 0.07508625 -0.026824571 -0.06593069 -0.017770365 0.06258169
-0.05555775 0.002442622 -0.03074476 0.045075458 0.013854865 -0.032077156 0.025251057 0.05270747
-0.06951672 0.08795667 -0.05831481 9.6441014e-05 -0.055044193 0.060547255 -0.04806203 -0.049535614
0.08195375 0.08296454 -0.04451364 -0.028376617 -0.05209001 0.025458794 0.062187478 -0.07504013
0.0753676 -0.013782514 -0.082070686 -0.047382712 0.040832043 -0.009498136 -0.030090127 0.06965521
0.0011406192 -0.01699135 0.0026179608 -0.0017295107 -0.037830163 -0.081484385 0.025765164 -0.0044540265
-0.06969282 -0.05516461 0.08393084 -0.085416615 0.037922412 0.0050513684 -0.01879059 -0.025063403
-0.06647157 0.04524845 -0.003387662 -0.08781322 0.090987206 -0.091089614 -0.029687494 0.0022761903
0.03016509 0.042239487 -0.013068094 0.05421166 0.032640412 -0.056861043 -0.077600546 0.044388674
-0.08162426 -0.04273897 0.08630096 -0.064902 0.00453551 0.038233697 -0.025390184 0.03954251
-0.037376948 -0.023978757 0.06503581 0.084527776 0.03797657 0.0065977355 0.0851474 0.083015844
-0.055928558 0.043622218 0.020364173 -0.043545738 0.05565984 0.020601539 0.019274931 0.02222687
0.043978196 0.051223688 -0.023053348 0.08120227 -0.06964055 0.0006808415 -0.040165007 -0.064496264
-0.07924858 0.07853714 -0.06909911 0.08908722 0.07047013 0.08490556 0.08351874 0.07925947
-0.08518612 0.065788485 0.020212479 0.0065066735 -0.029643646 0.028301358 -0.034317873 -0.05575955
-0.07180542 -0.08707885 0.0089693805 -0.013067931 -0.025141886 0.0535753 -0.074124776 0.0011035475
-0.049307074 0.016474845 0.07368208 0.052768696 0.046939492 -0.041413985 0.029533785 0.0026521191
0.031380333 0.08587696 -0.079881385 0.04944922 -0.04130399 -0.034840308 -0.0016895887 0.005685475
0.059640065 -0.006441705 0.056685217 -0.0177548 0.014539294 -0.015465042 -0.084099516 -0.056377046
0.040215928 -0.09030865 0.087127894 0.0060217124 -0.022698082 0.08917464 0.057146773 -0.07207054
0.02160585 0.05257553 -0.01250399 -0.018331118 -0.073882766 0.061878346 0.0166014 0.08088643
-0.08183901 -0.029142624 -0.07955691 -0.019230474 0.07318799 -0.044644177 -0.044905588 0.04818301
-0.079792425 -0.06017684 -0.077078946 -0.0066759037 0.0836063 0.00054662395 -0.08963649 -0.08700627
-0.0058515985 0.061563104 -0.05968512 -0.055851996 -0.0047422647 -0.0882471 0.08431543 -0.008166502
0.07005112 0.043589294 0.051635593 0.08162504 0.009867301 -0.08315935 0.01042052 -0.054758888
0.020376587 -0.017364893 -0.010251824 0.084701195 0.013842677 -0.088461794 0.019817956 0.014993116
-0.058412585 -0.013763303 -0.0864812 0.012610808 0.070014864 0.054333024 0.03004246 0.009012678
0.033225697 0.043868106 0.06333414 0.01877283 -0.07416722 -0.048825406 -0.029871885 0.08105084
0.021284197 -0.09057479 0.07397881 -0.019799566 -0.058824968 -0.050701816 0.005475238 -0.06731663
0.046621565 0.027554387 0.02135393 -0.057360258 -0.018630592 0.009992109 0.082681075 -0.073460504
-0.044551466 0.04963861 -0.04182281 0.05537366 -0.080073036 -0.062275723 -0.04459646 -0.032260116
-0.046807226 -0.07512457 -0.00791679 -0.05260063 -0.037646502 -0.007301332 -0.06318485 0.010195155
00000000: ff8a 1b3d 43a2 31bd 14fe a2bd d2c6 993d
00000010: 34bf dbbc ab06 87bd 2893 91bc d42a 803d
00000020: 8690 63bd 6614 203b 6fdc fbbc 0ba1 383d
00000030: 84ff 623c 5663 03bd 4edb ce3c cae3 573d
00000040: c85e 8ebd a022 b43d 83db 6ebd 6040 ca38
00000050: 0576 61bd 6600 783d b1dc 44bd dbe5 4abd
00000060: 5ed7 a73d 50e9 a93d ef53 36bd 1476 e8bc
00000070: 565c 55bd f68e d03c 4cb8 7e3d a4ae 99bd
00000080: 545a 9a3d 0ed0 61bc ad14 a8bd 6014 42bd
00000090: 803f 273d 129e 1bbc 927f f6bc 64a7 8e3d
000000a0: d480 953a 7231 8bbc 1892 2b3b c0b0 e2ba
000000b0: cdf3 1abd 49e1 a6bd 7711 d33c 15f3 91bb
000000c0: 1cbb 8ebd 49f4 61bd efe3 ab3d e8ee aebd
000000d0: 8854 1b3d f385 a53b b9ee 99bc c451 cdbc
000000e0: 3f22 88bd 7056 393d 8903 5ebb 6bd7 b3bd
000000f0: 8057 ba3d 318d babd 3033 f3bc 232c 153b
00000100: c71c f73c 5003 2d3d 8f1b 56bc 0c0d 5e3d
00000110: f4b1 053d 20e7 68bd 09ed 9ebd e6d0 353d
00000120: 9f2a a7bd 0f0f 2fbd 8fbe b03d 57eb 84bd
00000130: 9e9e 943b f09a 1c3d 13ff cfbc 54f7 213d
00000140: 9218 19bd 196f c4bc 7f31 853d e61c ad3d
00000150: 528d 1b3d d131 d83b c361 ae3d 3604 aa3d
00000160: 5815 65bd 36ad 323d c4d2 a63c 045d 32bd
00000170: 93fb 633d 8fc4 a83c 76e6 9d3c 2015 b63c
00000180: 7b22 343d eecf 513d 60da bcbc 604d a63d
00000190: b49f 8ebd 807a 323a 1084 24bd 9e16 84bd
000001a0: 144d a2bd 14d8 a03d d683 8dbd 5c73 b63d
000001b0: a552 903d f7e2 ad3d e00b ab3d ca52 a23d
000001c0: 0f76 aebd 1dbc 863d a494 a53c ef35 d53b
000001d0: 3bd7 f2bc 40d8 e73c e690 0cbd 2064 64bd
000001e0: b80e 93bd 6556 b2bd 4ff4 123c e01a 56bc
000001f0: 5bf6 cdbc c671 5b3d bbce 97bd e9a4 903a
00000200: 37f6 49bd 41f6 863c a1e6 963d fd23 583d
00000210: a043 403d b6a1 29bd d6f0 f13c 2dcf 2d3b
00000220: aa88 003d 42e0 af3d da98 a3bd 448b 4a3d
00000230: 5f2e 29bd b6b4 0ebd 3075 ddba 394d ba3b
00000240: 2449 743d f014 d3bb c22e 683d 8472 91bc
00000250: 3836 6e3c 1661 7dbc 5e3c acbd 9eeb 66bd
00000260: 75b9 243d bef3 b8bd 1c70 b23d c951 c53b
00000270: 54f1 b9bc 32a1 b63d bc12 6a3d b899 93bd
00000280: c0fe b03c 7059 573d 89dd 4cbc 242b 96bc
00000290: d94f 97bd 2674 7d3d a9ff 873c c9a7 a53d
000002a0: 369b a7bd 83bc eebc bcee a2bd 3a89 9dbc
000002b0: 96e3 953d d0dc 36bd ecee 37bd 8c5b 453d
000002c0: 366a a3bd fd7b 76bd 91db 9dbd 8ac1 dabb
000002d0: c839 ab3d 504b 0f3a 5693 b7bd 5830 b2bd
000002e0: c4be bfbb 9829 7c3d 6278 74bd 10c5 64bd
000002f0: 0065 9bbb e5ba b4bd 91ad ac3d cbcc 05bc
00000300: f676 8f3d b08a 323d d87f 533d 072b a73d
00000310: 76aa 213c 734f aabd d4ba 2a3c db4a 60bd
00000320: cdec a63c d240 8ebc 44f7 27bc d277 ad3d
00000330: 65cc 623c 752b b5bd 4459 a23c b0a5 753c
00000340: 0942 6fbd 7a7f 61bc 0e1d b1bd 909d 4e3c
00000350: f463 8f3d 4e8c 5e3d 9b1b f63c e9a9 133c
00000360: ab17 083d 0baf 333d 54b5 813d 7ac9 993c
00000370: fce4 97bd 26fd 47bd e2b5 f4bc fcfd a53d
00000380: 325c ae3c 477f b9bd 3482 973d b332 a2bc
00000390: 73f2 70bd b5ac 4fbd a069 b33b 4ddd 89bd
000003a0: 41f6 3e3d bdb9 e13c 70ee ae3c 97f2 6abd
000003b0: 2f9f 98bc f1b5 233c b254 a93d 7672 96bd
000003c0: 997b 36bd db51 4b3d 654e 2bbd 7ecf 623d
000003d0: 55fd a3bd d414 7fbd c7aa 36bd 2f23 04bd
000003e0: efb8 3fbd e9da 99bd 6db5 01bc c273 57bd
000003f0: 3833 1abd 0340 efbb 0f67 81bd 9409 273c

layers.8.bias f4 [84]
0.047951255 -0.06846518 0.044173475 -0.057298157 0.04311159 0.043357227 0.024229625 -0.027374454
0.04234423 0.084089756 0.032967668 0.03611096 -0.0034470642 -0.049590908 0.07462088 0.028589543
0.067719534 -0.059012987 -0.058831744 0.08068396 0.059604097 -0.059713032 0.06539382 0.07304067
0.014391915 0.089590244 -0.002234403 0.048129413 -0.008764701 -0.061329108 -0.025692223 0.08691553
-0.047712028 0.028859343 -0.04645097 0.020378415 -0.06907529 0.039414935 0.0018929392 -0.012483715
0.001401108 0.0076579885 0.023035442 0.03837347 -0.039043404 0.052083526 -0.018954823 -0.017840687
-0.022604978 -0.023001736 0.0031590178 -0.074805975 0.07029179 -0.06406145 -0.033887777 0.02289225
-0.050759383 0.019117353 -0.05863806 -0.041693468 0.0037863536 -0.050807454 -0.094036214 -0.078944236
-0.01641881 -0.018325895 -0.0015503322 0.07533417 0.060776338 0.06191485 0.06534989 0.07530539
0.02351509 -0.051323656 -0.063654795 0.08302723 0.06673737 -0.01584577 0.0040575373 0.016543094
-0.044155955 -0.088348635 0.07427662 -0.0919812
00000000: 8968 443d 7937 8cbd 3fef 343d 79b1 6abd
00000010: c795 303d 5997 313d 357d c63c 6440 e0bc
00000020: 2571 2d3d 4037 ac3d 1b09 073d 16e9 133d
00000030: 24e8 61bb d61f 4bbd d5d2 983d 9e34 ea3c
00000040: 8ab0 8a3d 9ab7 71bd 8ef9 70bd a23d a53d
00000050: 6d23 743d a795 74bd 32ed 853d 5996 953d
00000060: 11cc 6b3c 177b b73d 106f 12bb 5923 453d
00000070: d299 0fbc 3b34 7bbd 7f78 d2bc c500 b23d
00000080: b06d 43bd 6e6a ec3c 5f43 3ebd a2f0 a63c
00000090: 5877 8dbd 8e71 213d 801c f83a 7f88 4cbc
000000a0: 62a5 b73a ddef fa3b d3b4 bc3c 802d 1d3d
000000b0: faeb 1fbd 8955 553d 2547 9bbc a226 92bc
000000c0: 132e b9bc 236e bcbc 8607 4f3b e033 99bd
000000d0: 24f5 8f3d a632 83bd e9cd 0abd 8788 bb3c
000000e0: 12e9 4fbd ff9b 9c3c 762e 70bd c5c6 2abd
000000f0: 7924 783b 7a1b 50bd 0f96 c0bd 84ad a1bd
00000100: bd80 86bc 3020 96bc 8434 cbba cd48 9a3d
00000110: 9cf0 783d 6d9a 7d3d 2ad6 853d b639 9a3d
00000120: b8a2 c03c c138 52bd 725d 82bd 2e0a aa3d
00000130: 9aad 883d fdce 81bc 17f5 843b 6285 873c
00000140: e0dc 34bd 21f0 b4bd 571e 983d a460 bcbd

layers.10.weight f4 [10, 84]
-0.049086586 0.09452739 0.01698286 -0.038922492 -0.021890165 -0.067359895 -0.06050687 0.02905785
0.0072682565 -0.0022755137 -0.054222416 -0.06388989 0.09333226 -0.004025699 -0.029964613 -0.08449488
0.06538972 0.07511246 0.03253513 0.09178055 -0.008722301 -0.07991641 0.021982443 -0.034004383
-0.026188157 -0.10286735 -0.096414804 0.07184785 -0.09688171 0.010648858 0.09922056 -0.024922593
0.0069537726 0.030801373 -0.018476425 -0.06283316 -0.07837227 0.09941031 -0.07918066 0.09388174
0.06068628 -0.10518501 -0.044713315 0.064826414 0.011057164 0.09787647 0.019820679 -0.077006474
0.08471907 -0.060521193 0.091884196 0.0649796 -0.075267844 -0.04617409 0.06031197 0.021891667
-0.090289965 0.069003254 0.035673965 -0.0652605 -0.05111336 0.0592313 -0.05708057 0.08282303
-0.012281322 -0.09058574 -0.09656772 0.06551652 -0.09960856 0.09979008 0.0053965496 0.022086486
-0.10838151 0.07270873 -0.10386136 0.06327115 0.047631375 0.038909264 0.08827614 -0.03741706
-0.0034724579 -0.07747485 0.016217053 0.08442501 -0.012203068 0.06970353 0.03751666 -0.062395792
-0.037885077 0.06838896 -0.04844802 0.03267797 0.017223634 0.023022873 0.09686083 0.08979326
0.07627918 -0.021589924 -0.103483856 0.0040458348 -0.09751531 0.06072549 0.056244805 0.07464538
-0.0013119959 -0.025083518 0.02094806 -0.05580984 -0.03046964 0.08273827 -0.043629576 -0.04770704
-0.09257887 0.034141913 0.07452479 -0.041737903 0.050720744 -0.07470518 -0.09804306 0.40292758
0.0243699 0.0015685013 0.0965804 -0.021010842 0.038558178 0.014064465 0.06953367 0.062508635
0.058605257 -0.003143434 0.0033739754 -0.019244872 -0.10643052 0.09059649 0.09454047 0.03298686
-0.076329336 -0.1036267 -0.055792972 -0.01991566 -0.015598387 0.08515061 0.053630583 -0.0060556903
-0.050254997 0.0029813899 -0.039598595 0.06614837 0.0644444 0.09613802 0.011565742 -0.10092353
0.106771015 -0.014786474 -0.04076827 0.10433578 -0.027061997 0.09374783 0.053419475 -0.015507466
-0.07887304 -0.03723401 0.09428252 0.0721823 -0.004502324 -0.023743283 0.045257926 0.040247846
0.020347737 -0.071515 0.022536356 -0.085408814 -0.07716678 0.018815458 -0.026661808 0.05346743
0.023269037 -0.033915482 0.056349862 0.033082146 -0.029235275 -0.044956286 -0.07962578 -0.06288376
-0.016489036 0.07742448 -0.026508182 0.033547156 -0.088397 -0.07561828 0.004241581 -0.059791103
0.04417413 0.028388996 -0.06223259 -0.019583352 -0.056803953 -0.04866738 0.0075556594 0.06666149
-0.092485175 0.1005547 -0.03029521 -0.0077771274 -0.08224918 -0.0820049 -0.079399705 -0.08069366
-0.10216531 0.015606806 0.095337406 0.035342917 -0.07791797 -0.0018291293 -0.019007357 -0.038437262
0.041498337 -0.09025415 -0.032119963 0.059430495 -0.020445006 -0.03734955 0.01134839 0.023703719
0.102099 -0.08697235 0.0071427873 0.03685222 0.018753817 -0.079989836 0.035926122 -0.07133928
0.009484735 0.09885061 0.07802857 0.026190666 0.06977147 -0.020461228 -0.058645524 0.09650431
-0.09574224 -0.0043016076 -0.06970068 0.016129842 0.027764613 0.046720315 -0.037624955 0.0056971805
-0.079630725 -0.057539828 0.00049416046 -0.021548571 0.02161457 0.0994676 -0.0066781603 -0.05725935
00000000: 040f 49bd 9497 c13d a41f 8b3c 316d 1fbd
00000010: 0153 b3bc fcf3 89bd 0dd6 77bd ba0a ee3c
00000020: 8e2a ee3b c920 15bb 5318 5ebd b4d8 82bd
00000030: fc24 bf3d 03ea 83bb 5978 f5bc a70b adbd
00000040: 0ceb 853d 90d4 993d 8e43 053d 71f7 bb3d
00000050: fbe7 0ebc 37ab a3bd 8614 b43c 2e48 0bbd
00000060: 8c88 d6bc 1eac d2bd 2075 c5bd f724 933d
00000070: eb69 c6bd 8c78 2e3c 2634 cb3d 772a ccbc
00000080: 79dc e33b 2953 fc3c df5b 97bc acae 80bd
00000090: a481 a0bd a297 cb3d 7829 a2bd 1245 c03d
000000a0: 2d92 783d 3d6b d7bd 4f25 37bd b6c3 843d
000000b0: 1b29 353c 7573 c83d fa5e a23c 92b5 9dbd
000000c0: 3181 ad3d 12e5 77bd c82d bc3d 0614 853d
000000d0: 0726 9abd 0b21 3dbd af09 773d 2756 b33c
000000e0: f2e9 b8bd 9451 8d3d dd1e 123d 4ca7 85bd
000000f0: 3e5c 51bd 859c 723d 51cd 69bd 1f9f a93d
00000100: 9937 49bc 0485 b9bd 4cc5 c5bd 862d 863d
00000110: 93ff cbbd be5e cc3d 8ad5 b03b b8ee b43c
00000120: 20f7 ddbd 51e8 943d 44b5 d4bd 4e94 813d
00000130: 1e19 433d 525f 1f3d 1fca b43d a242 19bd
00000140: 2d92 63bb 22ab 9ebd a0d9 843c 05e7 ac3d
00000150: 60ef 47bc b9c0 8e3d 12ab 193d bb92 7fbd
00000160: 622d 1bbd 830f 8c3d 6e71 46bd 56d9 053d
00000170: 9418 8d3c 779a bc3c f95e c63d 87e5 b73d
00000180: 4238 9c3d 5add b0bc 58ef d3bd ec92 843b
00000190: 1bb6 c7bd 4bbb 783d f460 663d addf 983d
000001a0: 47f7 abba f37b cdbc 449b ab3c dc98 64bd
000001b0: 779b f9bc af72 a93d edb4 32bd 7568 43bd
000001c0: fe99 bdbd 64d8 0b3d 74a0 983d 5df5 2abd
000001d0: 8ec0 4f3d 08ff 98bd cdca c8bd 864c ce3e
000001e0: 62a3 c73c 2c96 cd3a f2cb c53d ee1e acbc
000001f0: 2eef 1d3d a46e 663c ab67 8e3d 8704 803d
00000200: 110c 703d 1202 4ebb ea1d 5d3b 6ca7 9dbc
00000210: 3ff8 d9bd a78a b93d 6f9e c13d 3b1d 073d
00000220: 8e52 9cbd 3c3a d4bd 2c87 64bd 2b26 a3bc
00000230: 6190 7fbc 7163 ae3d beab 5b3d d06e c6bb
00000240: 2fd8 4dbd 6c63 433b 2332 22bd cc78 873d
00000250: 6dfb 833d 03e4 c43d 3d7e 3d3c ffb0 cebd
00000260: c3aa da3d f842 72bc a1fc 26bd ffad d53d
00000270: 1fb1 ddbc ddfe bf3d 61ce 5a3d 0713 7ebc
00000280: 3088 a1bd b082 18bd 3217 c13d 50d4 933d
00000290: 3b88 93bb 4681 c2bc 6060 393d edda 243d
000002a0: 4cb0 a63c 7576 92bd 2a9e b83c d1ea aebd
000002b0: 9e09 9ebd e022 9a3c dd69 dabc aa00 5b3d
000002c0: b59e be3c f6ea 0abd 1dcf 663d 2581 073d
000002d0: d17e efbc 1524 38bd d712 a3bd 33c9 80bd
000002e0: 0414 87bc ba90 9e3d b027 d9bc be68 093d
000002f0: 7d09 b5bd c2dd 9abd f6fc 8a3b 84e7 74bd
00000300: efef 343d 0a90 e83c 9ae7 7ebd 446d a0bc
00000310: 43ab 68bd 7257 47bd 7795 f73b d285 883d
00000320: de68 bdbd 9fef cd3d a92d f8bc 46d7 febb
00000330: 4272 a8bd 2ff2 a7bd 509c a2bd b842 a5bd
00000340: 0c3c d1bd b0b3 7f3c 4240 c33d bcc3 103d
00000350: 7593 9fbd 65bf efba 51b5 9bbc 6470 1dbd
00000360: 29fa 293d 2bd7 b8bd 3990 03bd 646d 733d
00000370: 497c a7bc d7fb 18bd 99ee 393c 4d2e c23c
00000380: 4819 d13d 8f1e b2bd 0b0e ea3b 5af2 163d
00000390: 9ba1 993c b6d1 a3bd 4527 133d 541a 92bd
000003a0: dd65 1b3c 3072 ca3d 71cd 9f3d cf8d d63c
000003b0: 58e4 8e3d 4e9e a7bc 4a36 70bd 0da4 c53d
000003c0: 8214 c4bd 80f4 8cbb 3bbf 8ebd bb22 843c
000003d0: 9d72 e33c cd5d 3f3d a01c 1abd 6aaf ba3b
000003e0: 6f15 a3bd e2ae 6bbd 8c8a 013a a186 b0bc
000003f0: 0a11 b13c abb5 cb3d 78d4 dabb c888 6abd

layers.10.bias f4 [10]
0.019870985 0.39383996 0.048382252 0.16344506 -0.16502668 -1.8694844 -0.04683459 0.25760505
-0.08368306 -0.04089187
00000000: 7ac8 a23c 64a5 c93e 782c 463d 245e 273e
00000010: c1fc 28be 444b efbf a1d5 3fbd cfe4 833e
00000020: 0662 abbd 3c7e 27bd
