code/stage_3_code/result/CNN_model.pth.pth (torch, 175675 bytes, 14 tensors)

layers.0.weight f4 [6, 1, 3, 3]
0.025317362 -0.24728286 -0.28211758 -0.02366343 0.2615691 0.024335526 -0.0015942546 0.08685835
0.11572284 -0.21844342 -0.50659347 -0.06461317 -0.4440147 0.21290697 0.16740263 -0.25408554
0.01902254 0.15176164 -0.011771566 0.12872873 0.1826101 -0.3614387 -0.24866693 0.17816697
0.22513476 -0.3136161 -0.15706043 0.22852448 0.12642647 0.1494751 0.007483452 0.005000998
-0.1152053 -0.28123915 -0.31658033 0.08512763 -0.03431093 0.107727624 -0.13519941 0.0122326035
0.089458704 -0.098324165 -0.092286 0.03269218 -0.014577655 0.11823018 0.033054084 -0.036258012
0.019153526 0.13130246 0.06441421 0.008329003 0.054537695 -0.061965067
00000000: 5b66 cf3c b837 7dbe b771 90be cfd9 c1bc
00000010: 63ec 853e 4c5b c73c 4ff6 d0ba cae2 b13d
00000020: 1900 ed3d a2af 5fbe 1cb0 01bf e953 84bd
00000030: e555 e3be 4904 5a3e 986b 2b3e 8017 82be
00000040: 28d5 9b3c 6767 1b3e 87dd 40bc 77d1 033e
00000050: 24fe 3a3e 7e0e b9be 8ba2 7ebe 6771 363e
00000060: ba89 663e 4a92 a0be 73d4 20be 5202 6a3e
00000070: f175 013e 0010 193e bf37 f53b 69df a33b
00000080: c2f0 ebbd 94fe 8fbe d116 a2be 6557 ae3d
00000090: 9e89 0cbd 4da0 dc3d b771 0abe 426b 483c
000000a0: 2036 b73d 2e5e c9bd 7100 bdbd 3ce8 053d
000000b0: 1ed7 6ebc aa22 f23d b863 073d 4883 14bd
000000c0: dbe7 9c3c 2774 063e 99eb 833d 5f76 083c
000000d0: eb62 5f3d 15cf 7dbd

layers.0.bias f4 [6]
-0.31710827 0.12592669 -0.053647578 -0.017284358 -0.49488446 -0.43188202
00000000: 045c a2be edf2 003e 90bd 5bbd ed97 8dbc
00000010: 7f61 fdbe a41f ddbe

layers.3.weight f4 [16, 6, 3, 3]
0.26237983 0.08268232 0.08001648 -0.076610975 0.07297706 -0.006879655 0.122869946 -0.15399447
-0.03186242 0.1370034 -0.1584956 0.021194613 0.091774546 -0.03143205 -0.14484066 0.038308654
0.022099216 -0.22633128 0.079078324 -0.15215318 -0.016804574 0.08243849 -0.023654023 -0.16863894
-0.29722083 -0.031050319 0.0039356668 0.09124258 -0.16504095 -0.46350583 0.1914191 -0.03231488
-0.25830853 -0.1515705 -0.23618293 -0.23706196 -0.2157101 0.023204451 0.08181247 0.113590725
-0.005341969 -0.050770156 -0.047952835 0.10097884 0.15145983 -0.10727144 0.032054238 0.23279156
-0.11159052 0.007898561 0.051104113 -0.14271612 0.107453465 0.0877175 0.044562295 0.06935464
-0.039317448 0.14555049 0.04374754 -0.13692653 -0.08112126 -0.23342252 0.03175628 0.09472777
0.10616394 0.19589989 -0.0626808 0.24832265 0.11615848 0.08289462 0.10390824 -0.53200054
-0.010613778 -0.32306716 0.0049812323 -0.19152324 -0.2447281 -0.554057 -0.32285038 -0.04204289
0.06809159 -0.047313787 -0.28767362 0.08895122 -0.09830333 -0.1353384 0.05203719 -0.19966678
-0.07530883 -0.019160036 -0.06532629 0.19676182 -0.13368298 0.034760345 -0.029632967 -0.009586295
0.03911572 0.046505887 0.013926393 -0.00084991165 0.05619366 0.16320348 0.0883532 0.1796457
-0.06307909 0.13901377 0.1909079 -0.070354514 0.01804705 -0.052960604 -0.018273883 0.08355961
0.10849032 0.26552224 -0.36797053 0.2944531 -0.08894671 -0.011317907 0.2608035 -0.04852065
-0.29650763 -0.3684413 -0.1937649 -0.1327212 -0.24482924 -0.15664937 -0.29999223 -0.07712675
-0.065623574 0.05372504 0.24659356 -0.08428756 0.12743828 0.14316493 0.11644845 -0.1283613
0.07804184 0.2250804 -0.038335565 -0.1928043 -0.17709051 0.1118314 0.047371432 0.15152897
-0.050584592 0.08407917 0.0014329883 -0.039459676 0.19499937 -0.12078777 -0.14734757 -0.0038922771
-0.004500656 -0.046847597 -0.017471926 -0.09089677 0.12471319 -0.07584282 -0.16251819 -0.19208197
0.189397 0.15079047 0.01289845 -0.2451453 -0.12949862 0.25181752 -0.033429444 -0.41681266
0.080327265 0.048292965 -0.022423066 -0.28841296 -0.11294069 0.17806195 -0.19819827 -0.29410213
-0.16194437 0.31523323 0.105968595 0.10048783 0.3058217 0.21692461 -0.1118999 -0.15937006
0.19927584 0.33468822 0.048833705 0.091467455 0.017473735 0.010847878 0.03198935 0.050560307
0.020962533 -0.3509821 -0.017219022 -0.01869696 -0.2049387 -0.5362653 -0.2101713 -0.20825247
0.1583395 0.15834904 0.0838637 -0.14606534 0.21790107 0.13786481 -0.1263747 -0.09692258
-0.16587959 0.08974757 0.07507009 0.056916554 -0.11418647 0.29271182 0.13527295 -0.09577185
0.022277508 0.0147996405 0.087989986 -0.13564989 -0.3030923 0.18656607 0.27212393 -0.049801268
-0.10924516 -0.05688456 -0.0023886247 -0.0021377848 -0.013054301 -0.11566253 -0.032786988 -0.096835524
-0.1784597 -0.15638675 -0.058508594 0.10365512 -0.010947991 0.083330326 0.15868579 0.23956905
0.021829585 0.14306298 0.37131712 0.09567465 0.04986267 -0.11804063 0.03211595 -0.035480917
-0.103900746 -0.054220773 0.044660293 0.059169676 -0.010602139 0.07290593 0.12165048 -0.11468177
00000000: a656 863e 5955 a93d aedf a33d 37e6 9cbd
00000010: ff74 953d bb6e e1bb 3da3 fb3d bab0 1dbe
00000020: 2b82 02bd 9f4a 0c3e ac4c 22be 53a0 ad3c
00000030: 4bf4 bb3d e5be 00bd 1c51 14be 89e9 1c3d
00000040: 6a09 b53c 63c3 67be d1f3 a13d 0bce 1bbe
00000050: bfa9 89bc 83d5 a83d 15c6 c1bc b0af 2cbe
00000060: 542d 98be 3d5d febc c4f6 803b 64dd ba3d
00000070: 7f00 29be a350 edbe 5e03 443e 9c5c 04bd
00000080: 0441 84be 4c35 1bbe f0d9 71be 5fc0 72be
00000090: 1ce3 5cbe 4317 be3c 4c8d a73d 41a2 e83d
000000a0: af0b afbb 5ef4 4fbd 316a 44bd fecd ce3d
000000b0: 4918 1b3e 21b1 dbbd 4e4b 033d e960 6e3e
000000c0: 9289 e4bd f768 013c 8c52 513d 2d24 12be
000000d0: 9010 dc3d 3ca5 b33d f486 363d ce09 8e3d
000000e0: 550b 21bd 300b 153e 9f30 333d 7836 0cbe
000000f0: e722 a6bd 5006 6fbe e012 023d a200 c23d
00000100: 7b6c d93d fb99 483e cb5e 80bd 4b48 7e3e
00000110: 7fe4 ed3d a8c4 a93d d8cd d43d 3031 08bf
00000120: 69e5 2dbc 0f69 a5be 9b39 a33b ab1e 44be
00000130: 019a 7abe aed6 0dbf a54c a5be 2a35 2cbd
00000140: 9b73 8b3d 1acc 41bd f549 93be 0f2c b63d
00000150: 4253 c9bd 2696 0abe f324 553d 7375 4cbe
00000160: 843b 9abd 82f5 9cbc cac9 85bd ee7b 493e
00000170: 31e4 08be dd60 0e3d d6c0 f2bc d60f 1dbc
00000180: ce37 203d f57c 3e3d 872b 643c 9bcc 5eba
00000190: 532b 663d d01e 273e 86f2 b43d 0bf5 373e
000001a0: 9c2f 81bd a059 0e3e 5c7d 433e 0716 90bd
000001b0: 68d7 933c 38ed 58bd 1cb3 95bc 4d21 ab3d
000001c0: 2c30 de3d 88f2 873e a266 bcbe 8fc2 963e
000001d0: b129 b6bd be6e 39bc 0988 853e 97bd 46bd
000001e0: d9cf 97be 57a4 bcbe 4e6a 46be 11e8 07be
000001f0: 84b4 7abe b168 20be 9598 99be a1f4 9dbd
00000200: a765 86bd ca0e 5c3d 0683 7c3e f59e acbd
00000210: 2e7f 023e d499 123e 867c ee3d 2571 03be
00000220: 66d4 9f3d 7a7b 663e c105 1dbd 7e6e 45be
00000230: 3757 35be dc07 e53d 8c08 423d 692a 1b3e
00000240: ca31 4fbd b331 ac3d 1cd3 bb3a 78a0 21bd
00000250: eaad 473e 945f f7bd 48e2 16be 9315 7fbb
00000260: 3d7a 93bb 44e3 3fbd 4921 8fbc 1628 babd
00000270: a169 ff3d 7b53 9bbd 2b6b 26be 23b1 44be
00000280: 4af1 413e d168 1a3e 0554 533c 5f07 7bbe
00000290: 499b 04be 3aee 803e 50ed 08bd 7868 d5be
000002a0: 9f82 a43d d8ce 453d 94b0 b7bc ddaa 93be
000002b0: 734d e7bd df55 363e 7df4 4abe 8e94 96be
000002c0: bfd4 25be 4066 a13e 1006 d93d 90cc cd3d
000002d0: a994 9c3e 7c21 5e3e c62b e5bd e831 23be
000002e0: f70e 4c3e 415c ab3e da05 483d 4a53 bb3d
000002f0: 1425 8f3c 4cbb 313c 4407 033d 5318 4f3d
00000300: 9eb9 ab3c edb3 b3be e80e 8dbc 5e2a 99bc
00000310: 73db 51be af48 09bf 2537 57be 2340 55be
00000320: c023 223e 4026 223e bbc0 ab3d 2792 15be
00000330: 7521 5f3e 6f2c 0d3e 5f68 01be 587f c6bd
00000340: 57dc 29be 93cd b73d 59be 993d 5521 693d
00000350: 99da e9bd 53de 953e fe84 0a3e 0824 c4bd
00000360: 527f b63c 317a 723c 1834 b43d cee7 0abe
00000370: ea2e 9bbe 2d0b 3f3e d453 8b3e 6afc 4bbd
00000380: edbb dfbd c9ff 68bd 798a 1cbb 141a 0cbb
00000390: b5e1 55bc 7ae0 ecbd a64b 06bd b451 c6bd
000003a0: 24be 36be d923 20be b5a6 6fbd 2349 d43d
000003b0: 345f 33bc 17a9 aa3d 877e 223e 9751 753e
000003c0: f5d3 b23c 1a7f 123e 471d be3e 12f1 c33d
000003d0: cd3c 4c3d 49bf f1bd 048c 033d 7054 11bd
000003e0: eac9 d4bd 9a16 5ebd b6ed 363d e75b 723d
000003f0: 98b4 2dbc b44f 953d e323 f93d 47de eabd

layers.3.bias f4 [16]
-0.2129941 -0.06884058 -0.60714066 -0.08719269 -0.35264707 0.25449088 -0.35511184 -0.16646603
-0.46633664 0.20858908 -0.06003186 -0.33011267 -0.26588672 0.2609345 -0.17764306 -0.26388595
00000000: 201b 5abe 4afc 8cbd 926d 1bbf 1592 b2bd
00000010: 288e b4be a14c 823e 38d1 b5be 1276 2abe
00000020: adc3 eebe 6098 553e f8e3 75bd 8704 a9be
00000030: 4e22 88be 3599 853e 10e8 35be 0f1c 87be

layers.6.weight f4 [32, 16, 3, 3]
-0.052059665 -0.0937569 0.048189413 0.053778905 -0.25987163 -0.04152949 0.023587253 0.010784186
0.050565492 0.26623547 0.06864089 0.023201637 -0.16732843 0.031059124 -0.10266519 -0.0035415862
-0.073600054 0.1583516 0.10882424 -0.06958354 -0.0056131887 0.05578693 -0.039709173 0.061320137
-0.06947858 -0.13250941 0.0086546475 -0.0033623732 -0.09186541 0.020775124 0.15283675 0.111068554
-0.033417515 0.14817408 -0.23387346 -0.04245503 0.10813108 0.0013521225 -0.18075648 0.24482834
-0.2198034 -0.6270478 0.06032256 0.046856303 -0.10176236 0.11586466 0.051537834 0.1093634
0.050228868 -0.09676892 -0.118194476 -0.06843103 0.00066985283 0.04398731 -0.09998382 -0.12648642
-0.0999348 -0.06982914 -0.22910722 -0.13258694 -0.22744177 0.10963079 0.13080922 -0.067846425
0.059917707 -0.05004814 0.1284323 -0.36243668 -0.19720766 -0.09924999 -0.46232525 -0.09699126
0.084002495 -0.23725437 0.272138 0.19813949 0.19199128 -0.0025807892 0.030197749 0.10095815
-0.10173975 0.22708583 -0.06478351 0.052984376 0.21170776 -0.109409995 0.38960198 -0.5018955
-0.08965008 -0.0095678475 -0.12317811 0.20424482 0.17177877 -0.18902595 -0.2507895 0.22761865
-0.15957493 -0.1855929 -0.21889351 0.19606614 0.15484552 -0.19819337 -0.3507477 -0.19532058
-0.1149189 0.124729335 -0.21425278 -0.051496364 -0.0031943307 0.06115276 -0.12317431 0.13844313
-0.13681072 -0.30138016 0.019565564 -0.060141068 0.10807193 -0.074646786 0.08338131 -0.062375054
-0.44883332 -0.18949836 -0.12431125 0.08275282 -0.16875733 -0.32641983 -0.06694707 0.25539902
-0.08830507 -0.08444049 -0.06004619 -0.0406894 -0.12730391 -0.2770832 -0.030542187 -0.10581734
0.18017454 0.06888955 0.19982639 -0.22942263 -0.026180191 0.20308305 -0.086377114 -0.12067981
-0.38454995 0.0096784 0.031429335 -0.20112424 -0.28345993 0.08215618 -0.14461926 -0.11671169
0.26776785 -0.0053557004 -0.14231397 0.057704188 -0.052655395 -0.26046592 0.21839333 -0.3642472
-0.18419792 0.023073804 0.14178242 -0.14480025 0.076450735 -0.25018352 -0.1565729 -0.16709554
-0.053251788 -0.23107232 -0.07786785 -0.050521858 0.018955912 0.09660008 0.110811085 -0.15534061
-0.1454061 0.09998593 0.09266179 0.048109617 -0.26236528 0.04412186 -0.14037411 0.03232385
-0.02362862 0.14024138 -0.13069169 0.018633898 0.1424264 -0.29468203 -0.08356555 0.10738669
-0.08817214 -0.11630508 0.16326913 -0.35812494 -0.085350834 0.14756241 0.1412737 -0.071007706
-0.1942692 0.05758933 -0.21584123 0.031986408 -0.10348513 0.050863728 -0.007692099 -0.31916136
0.16487059 -0.020877352 0.0725307 -0.07171533 -0.25328434 0.11264097 -0.0032955343 0.023678454
0.044610728 -0.25176093 0.019891653 -0.15440519 -0.008725765 0.3182939 -0.16458654 0.1420139
0.11858255 -0.0036108193 -0.2689018 0.1993109 0.0883867 0.058172364 -0.29435906 0.04406845
-0.20762438 -0.25345135 -0.047012813 0.1943947 0.034613177 -0.0679092 0.060239345 -0.15946887
0.08210122 -0.09697234 -0.4104659 -0.049364623 0.18152143 0.017939849 -0.13331045 -0.28927267
-0.031136576 -0.13234034 0.026574427 -0.11073931 -0.21196254 0.035292223 0.047105968 -0.008035758
00000000: 843c 55bd 9e03 c0bd 4362 453d 4547 5c3d
00000010: e50d 85be d41a 2abd 0e3a c13c 28b0 303c
00000020: c31d 4f3d 0450 883e 9893 8c3d 5c11 be3c
00000030: 2558 2bbe b46f fe3c 2142 d2bd f519 68bb
00000040: a0bb 96bd ec26 223e 3edf de3d d181 8ebd
00000050: d7ee b7bb d680 643d 16a6 22bd d32a 7b3d
00000060: c94a 8ebd 8cb0 07be 39cc 0d3c 435b 5cbb
00000070: ef23 bcbd 9830 aa3c 3d81 1c3e e977 e33d
00000080: cee0 08bd f2ba 173e 867c 6fbe 53e5 2dbd
00000090: d473 dd3d b439 b13a 3a18 39be 48b4 7a3e
000000a0: 2414 61be 3486 20bf ca14 773d 65ec 3f3d
000000b0: c968 d0bd 734a ed3d 5619 533d ebf9 df3d
000000c0: c9bc 4d3d c92e c6bd f20f f2bd 9125 8cbd
000000d0: 1099 2f3a 0a2c 343d 51c4 ccbd a885 01be
000000e0: 9eaa ccbd 9502 8fbd 159b 6abe dfc4 07be
000000f0: 7fe6 68be 1c86 e03d daf2 053e 11f3 8abd
00000100: 456c 753d 47ff 4cbd c283 033e 4d91 b9be
00000110: cef0 49be 9443 cbbd e5b5 ecbe 5ba3 c6bd
00000120: 8009 ac3d cff2 72be ac55 8b3e 14e5 4a3e
00000130: 5d99 443e 7522 29bb 4561 f73c 26c3 ce3d
00000140: ee5c d0bd 3089 683e 38ad 84bd 2506 593d
00000150: ebc9 583e 5912 e0bd e979 c73e 397c 00bf
00000160: 769a b7bd 76c2 1cbc ce44 fcbd 8e25 513e
00000170: c6e6 2f3e 0590 41be 7b67 80be dd14 693e
00000180: 9c67 23be 110c 3ebe 9f25 60be 90c5 483e
00000190: d38f 1e3e 34f3 4abe 3495 b3be 1e02 48be
000001a0: 9a5a ebbd 1872 ff3d 1565 5bbe daed 52bd
000001b0: fa57 51bb 517b 7a3d d042 fcbd 09c4 0d3e
000001c0: 1c18 0cbe 804e 9abe f647 a03c 7b56 76bd
000001d0: d154 dd3d 6ae0 98bd d2c3 aa3d fc7c 7fbd
000001e0: 7bcd e5be dc0b 42be e696 febd 4f7a a93d
000001f0: b9ce 2cbe 8020 a7be 8c1b 89bd a9c3 823e
00000200: 4ad9 b4bd 23ef acbd fef2 75bd eea9 26bd
00000210: f55b 02be d9dd 8dbe 9c33 fabc c3b6 d8bd
00000220: ad7f 383e f715 8d3d 4a9f 4c3e c4ed 6abe
00000230: d777 d6bc 01f5 4f3e 7ce6 b0bd fa26 f7bd
00000240: bbe3 c4be 2792 1e3c 0cbc 003d 83f3 4dbe
00000250: a921 91be 8041 a83d 1217 14be 8a06 efbd
00000260: de18 893e df7e afbb c1ba 11be 3a5b 6c3d
00000270: 2fad 57bd ca5b 85be 80a2 5f3e 9c7e babe
00000280: 619e 3cbe 4605 bd3c 692f 113e 8446 14be
00000290: 3492 9c3d 0e18 80be a554 20be 181b 2bbe
000002a0: 8c1e 5abd 399e 6cbe 2e79 9fbd 02f0 4ebd
000002b0: 6e49 9b3c 43d6 c53d ecf0 e23d 9c11 1fbe
000002c0: 56e5 14be 6cc5 cc3d 77c5 bd3d 970e 453d
000002d0: be54 86be 20b9 343d 3bbe 0fbe 0366 043d
000002e0: cf90 c1bc 709b 0f3e 0bd4 05be 1ea6 983c
000002f0: 3ad8 113e 90e0 96be 6a24 abbd 8eed db3d
00000300: 9893 b4bd 5c31 eebd 0630 273e 275c b7be
00000310: 6bcc aebd 9a1a 173e 0eaa 103e 7d6c 91bd
00000320: 81ee 46be cae2 6b3d 7c05 5dbe 2e04 033d
00000330: 03f0 d3bd 7c56 503d 010e fcbb 1e69 a3be
00000340: d6d3 283e fb06 abbc fa8a 943d 7ddf 92bd
00000350: 7cae 81be 4fb0 e63d e4f9 57bb 51f9 c13c
00000360: bdb9 363d cfe6 80be d2f3 a23c 651c 1ebe
00000370: 83f6 0ebc 6bf7 a23e 6089 28be 186c 113e
00000380: 68db f23d 7fa3 6cbb 7fad 89be 2818 4c3e
00000390: 1604 b53d 2546 6e3d 3bb6 96be 1e81 343d
000003a0: 7c9b 54be 60c4 81be 8290 40bd 670f 473e
000003b0: 8cc6 0d3d fb13 8bbd 88bd 763d cf4b 23be
000003c0: af24 a83d 6f99 c6bd 9628 d2be 8f32 4abd
000003d0: c1e0 393e 97f6 923c 8982 08be 8c1b 94be
000003e0: 2212 ffbc 3a84 07be 9db2 d93c 4bcb e2bd
000003f0: b50c 59be 948e 103d 30f2 403d 69a8 03bc

layers.6.bias f4 [32]
-0.1503143 -0.25418508 -0.107481904 0.040295053 -0.23693807 -0.000523438 -0.14142293 -0.02839679
-0.022125294 -0.43176976 -0.11226983 -0.42119026 -0.14259323 -0.031585537 -0.29167646 0.2090217
-0.22999401 -0.28086418 -0.2808716 -0.037276596 -0.4064 -0.005523513 -0.263253 -0.18010135
-0.19213983 -0.12572564 -0.16316232 -0.17849937 -0.388799 -0.11697365 -0.13762617 -0.11896943
00000000: feeb 19be 8c24 82be 791f dcbd 6d0c 253d
00000010: e59f 72be 5437 09ba 2cd1 10be 63a0 e8bc
00000020: 1b40 b5bc ed10 ddbe baed e5bd 40a6 d7be
00000030: f603 12be d65f 01bd 9e56 95be c909 563e
00000040: 8d83 6bbe 6ecd 8fbe 67ce 8fbe 58af 18bd
00000050: a913 d0be 96fe b4bb 19c9 86be 7d6c 38be
00000060: 4ec0 44be 39be 00be 0614 27be 8ac8 36be
00000070: aa10 c7be e28f efbd e0ed 0cbe 3fa6 f3bd

layers.9.weight f4 [64, 32, 3, 3]
-0.12093912 -0.12996784 0.035812467 -0.07136622 -0.1001433 -0.2293234 0.12702268 -0.16408898
-0.0967679 -0.00030327876 0.0042521427 -0.087979704 -0.06920112 0.0044227983 0.08405249 0.03758368
-0.010025478 0.11480627 0.053280987 0.024984745 0.034112908 -0.0092896195 -0.32775247 -0.22187491
-0.010604217 0.10273907 0.2047846 -0.05266643 0.05601243 -0.022528565 -0.30471128 -0.047870193
0.11370147 0.0059130653 -0.19417535 -0.09099019 0.06675534 0.026907237 -0.05754949 -0.04762414
0.11527388 -0.019576361 0.07015988 -0.15291692 0.008439649 -0.039241374 -0.017754175 -0.016751362
0.069603056 -0.1127507 0.007091241 -0.07424567 -0.31722105 0.0927797 -0.010283819 0.016306203
0.020606501 0.014030958 -0.06720674 0.0777317 -0.12409886 0.015577914 -0.07953487 -0.040860754
-0.029676013 0.0061721466 0.07316434 -0.041433524 -0.1901715 -0.041146558 0.032544866 -0.17615198
0.07867626 -0.068029396 -0.08632078 -0.1293286 0.030278148 -0.24666129 -0.12009617 0.14604554
-0.0577149 -0.06280916 0.036162123 0.021565378 -0.032040287 -0.0072733173 -0.1246463 -0.075116165
0.02715268 -0.18006493 0.09381349 0.019533008 -0.04222285 -0.0109444335 -0.081782356 0.023744227
-0.002648411 -0.0261633 -0.112061955 -0.06383072 -0.077174716 -0.040120162 -0.1761459 -0.10517875
-0.24773853 0.026504932 0.014272488 -0.16796285 0.12672342 -0.040124793 -0.06467564 -0.12849554
-0.19015002 -0.16439691 -0.13498266 -0.06821132 0.09626968 -0.06325584 -0.017575026 0.07648786
0.15852103 -0.052678958 -0.08090098 -0.17911777 -0.08634235 -0.22331479 0.10494031 -0.0029160215
-0.09801463 -0.02524623 -0.15860753 -0.1061713 0.046929564 0.14918089 -0.063443206 0.0012165244
-0.009219713 0.017312722 -0.009515798 0.058430422 0.034757674 0.019815398 -0.031543214 -0.11499482
-0.017821405 -0.1300783 0.15534885 0.0729593 -0.011590606 -0.11313573 -0.08518525 -0.062992096
0.038166653 0.034318935 -0.010652153 0.051350035 -0.008380208 -0.14196672 -0.068191394 -0.04078065
-0.098660834 -0.11550444 0.12323017 -0.083733544 0.047836583 -0.0959471 0.04096024 -0.18283537
-0.03532121 -0.005955935 -0.15450191 0.072229676 0.04421202 -0.13060294 -0.0399287 -0.12264416
-0.025299124 -0.03029437 -0.15303679 -0.15609649 -0.08156893 0.080240704 -0.11533444 0.048054595
0.0075580957 -0.13180672 0.03564397 0.013197288 -0.16019198 -0.17325032 -0.09379684 0.003066472
-0.057659943 -0.038988248 0.069934145 -0.06366441 0.071532056 0.017372504 -0.045088902 0.09540874
-0.12165859 -0.043432415 -0.0072921123 -0.22237618 -0.04965026 -0.24456626 -0.10088521 0.12743805
-0.07283532 0.13273977 -0.1588735 -0.030106556 0.02864422 0.16033977 -0.08336719 -0.074269876
0.13717118 -0.0033882821 -0.034321193 0.017503852 0.013051982 0.04189663 0.0700159 0.0020815022
0.1387142 0.086679175 0.12778345 0.12653324 0.09561672 0.2340639 -0.13064261 0.062491212
0.03747945 -0.06700192 -0.037822247 0.14312355 -0.13348745 -0.087521546 -0.060446166 -0.12378803
-0.07933041 -0.09995914 -0.108359694 0.18424425 0.12701085 0.00859546 0.004727088 0.056699414
-0.014902555 -0.10465145 0.0899358 -0.05879999 -0.037229445 0.042609792 -0.047369592 -0.0180771
00000000: eeae f7bd 4a16 05be 18b0 123d 7428 92bd
00000010: ee17 cdbd c1d3 6abe 3c12 023e f106 28be
00000020: 402e c6bd 6301 9fb9 8f55 8b3b b42e b4bd
00000030: 51b9 8dbd 1fed 903b b623 ac3d 58f1 193d
00000040: e741 24bc 8d1f eb3d 2a3d 5a3d cfac cc3c
00000050: fab9 0b3d 7d33 18bc 2ccf a7be 2d33 63be
00000060: 4fbd 2dbc dd68 d23d 0eb3 513e c1b8 57bd
00000070: 4a6d 653d d38d b8bc 1e03 9cbe 8913 44bd
00000080: 51dc e83d 63c2 c13b e7d5 46be 1159 babd
00000090: 06b7 883d 916c dc3c 04b9 6bbd 8811 43bd
000000a0: b614 ec3d 9b5e a0bc fcaf 8f3d 4196 1cbe
000000b0: 7446 0a3c 90bb 20bd 3471 91bc 273a 89bc
000000c0: 0c8c 8e3d d7e9 e6bd a45d e83b 1d0e 98bd
000000d0: cc6a a2be 4903 be3d 777d 28bc 9694 853c
000000e0: f7ce a83c 1ae2 653c b0a3 89bd cc31 9f3d
000000f0: 8b27 febd 823a 7f3c 2ee3 a2bd 9b5d 27bd
00000100: 1c1b f3bc b83f ca3b 2fd7 953d 33b6 29bd
00000110: 51bc 42be 4b89 28bd c44d 053d 2f61 34be
00000120: 0521 a13d ff52 8bbd f3c8 b0bd b76e 04be
00000130: e109 f83c c794 7cbe fbf4 f5bd f68c 153e
00000140: 7566 6cbd 17a2 80bd bc1e 143d e0a9 b03c
00000150: ad3c 03bd 0255 eebb 8f46 ffbd 81d6 99bd
00000160: 4c6f de3c f162 38be 4921 c03d b003 a03c
00000170: def1 2cbd 4850 33bc 827d a7bd 4183 c23c
00000180: f790 2dbb 6b54 d6bc bd80 e5bd aeb9 82bd
00000190: c70d 9ebd 0a55 24bd 975f 34be f567 d7bd
000001a0: 2baf 7dbe df20 d93c 27d7 693c 74fe 2bbe
000001b0: c9c3 013e e559 24bd a974 84bd 5694 03be
000001c0: b0b6 42be aa57 28be e538 0abe 60b2 8bbd
000001d0: 0a29 c53d 478c 81bd 80f9 8fbc aba5 9c3d
000001e0: 5653 223e e4c5 57bd 6aaf a5bd a66a 37be
000001f0: 42d4 b0bd a2ac 64be f2ea d63d b91a 3fbb
00000200: e5bb c8bd 2fd1 cebc 036a 22be 5770 d9bd
00000210: 3739 403d e0c2 183e 83ee 81bd c973 9f3a
00000220: 470e 17bc 69d3 8d3c 26e8 1bbc bd54 6f3d
00000230: 105e 0e3d e753 a23c 7533 01bd 6782 ebbd
00000240: 32fe 91bc 3f33 05be c513 1f3e af6b 953d
00000250: 86e6 3dbc b5b3 e7bd 9b75 aebd 0002 81bd
00000260: a354 1c3d 0392 0c3d 5e86 2ebc 6a54 523d
00000270: 244d 09bc b95f 11be eea7 8bbd 9c09 27bd
00000280: b10e cabd 988d ecbd 1960 fc3d 7e7c abbd
00000290: 4bf0 433d ea7f c4bd edc5 273d 3239 3bbe
000002a0: f9ac 10bd 012a c3bb c035 1ebe 27ed 933d
000002b0: aa17 353d c7bc 05be 478c 23bd dd2c fbbd
000002c0: 1c40 cfbc e62b f8bc adb5 1cbe c2d7 1fbe
000002d0: 9c0d a7bd 3d55 a43d 7634 ecbd e5d4 443d
000002e0: e7a9 f73b 57f8 06be 69ff 113d 7039 583c
000002f0: 5e09 24be 8868 31be 8f18 c0bd ddf6 483b
00000300: d52c 6cbd 24b2 1fbd a239 8f3d 7c62 82bd
00000310: 667f 923d c850 8e3c 24af 38bd a865 c33d
00000320: 2428 f9bd 30e6 31bd acf2 eebb 95b6 63be
00000330: 125e 4bbd 946f 7abe e89c cebd 1f7f 023e
00000340: af2a 95bd efec 073e bcaf 22be 06a2 f6bc
00000350: 49a7 ea3c 1c30 243e 6bbc aabd ce1a 98bd
00000360: 9a76 0c3e f10d 5ebb 6194 0cbd 3d64 8f3c
00000370: fbd7 553c cd9b 2b3d 7f64 8f3d d069 083b
00000380: 180b 0e3e da84 b13d aad9 023e ee91 013e
00000390: b3d2 c33d 72ae 6f3e 2dc7 05be c9f6 7f3d
000003a0: 0d84 193d 4d38 89bd 80eb 1abd fb8e 123e
000003b0: efb0 08be 7f3e b3bd 6696 77bd 9484 fdbd
000003c0: fb77 a2bd 61b7 ccbd b0eb ddbd 86aa 3c3e
000003d0: 220f 023e f9d3 0c3c b0e5 9a3b a53d 683d
000003e0: d929 74bc 8053 d6bd 4330 b83d 42d8 70bd
000003f0: e77d 18bd 9b87 2e3d 9e06 42bd 6d16 94bc

layers.9.bias f4 [64]
-0.20287527 -0.1786854 0.01303378 -0.193875 -0.044806384 -0.062999524 -0.16690214 -0.11366824
-0.14796585 -0.042375572 0.026284048 -0.06517285 -0.19667949 -0.02488397 0.00011293557 -0.068175025
-0.1499952 -0.006899057 0.065212 -0.18272382 -0.046395313 -0.113909595 0.0032719525 -0.01552812
-0.07436085 -0.077920035 0.05962305 -0.03154522 -0.13358209 -0.17694989 0.05539178 -0.14892878
0.12238455 -0.0796245 -0.19049206 -0.16771953 -0.01967333 -0.16490658 -0.007771113 -0.028195646
0.10481395 -0.0046913936 -0.1810814 -0.22655877 0.016232088 -0.03730414 -0.11165246 -0.14448115
-0.09274969 -0.12816378 -0.1223174 0.04547354 -0.04737975 -0.023283977 0.028062206 0.040914673
-0.01862558 -0.032209653 0.0013282982 -0.07140684 -0.17037763 -0.0024249076 -0.03949126 0.14696161
00000000: 89be 4fbe 4ef9 36be a38b 553c 2b87 46be
00000010: e686 37bd e505 81bd 65e8 2abe e5ca e8bd
00000020: 5c84 17be 0292 2dbd a551 d73c 5879 85bd
00000030: 5966 49be 78d9 cbbc d3d7 ec38 599f 8bbd
00000040: 5798 19be 7c11 e2bb de8d 853d f41b 3bbe
00000050: 0309 3ebd 6f49 e9bd 416e 563b a869 7ebc
00000060: 804a 98bd 8a94 9fbd 4d37 743d 9035 01bd
00000070: bec9 08be 5a32 35be 7ee2 623d c980 18be
00000080: c0a4 fa3d 2b12 a3bd 5a10 43be abbe 2bbe
00000090: f729 a1bc 45dd 28be d2a4 febb 8efa e6bc
000000a0: b2a8 d63d 43ba 99bb 676d 39be 06ff 67be
000000b0: 28f9 843c 3acc 18bd 0caa e4bd def2 13be
000000c0: 8df3 bdbd 5e3d 03be 8c81 fabd 7642 3a3d
000000d0: 4511 42bd 0abe bebc b6e2 e53c 2596 273d
000000e0: ac94 98bc 45ee 03bd 4b1a ae3a c03d 92bd
000000f0: 7977 2ebe 33eb 1ebb 96c1 21bd 1b7d 163e

layers.12.weight f4 [120, 64]
0.09335233 -0.14278086 0.097342946 0.019220853 -0.07378878 -0.0075737983 -0.09669677 -0.09309574
-0.04303359 -0.19098625 -0.007901087 0.11821856 -0.15143259 -0.038805194 -0.07843691 0.023944132
-0.09204392 -0.13409397 -0.03568993 -0.17079504 -0.030987239 -0.01448237 0.13625458 0.16111967
0.0943689 -0.1052796 -0.054487996 -0.18415995 0.032919798 -0.09836129 0.13360001 0.013972278
0.23182714 -0.11985389 -0.15161282 -0.17190643 -0.047366124 0.057860795 -0.0011196152 0.072969556
0.1555293 -0.18769799 -0.34703463 -0.24032821 0.2540872 -0.0803142 -0.110396214 -0.04928171
0.031370584 -0.065022565 0.106396824 0.07276364 0.19176327 0.018362503 0.034703154 -0.4404336
-0.1571047 0.09799204 0.08190641 0.015961818 0.008498644 0.13936433 0.03126001 -0.054766506
0.055640288 -0.0032202608 -0.10007322 -0.11551435 -0.07164028 -0.03320433 0.22166853 -0.11035284
-0.110998556 0.15456693 -0.04104586 0.048351288 0.13294323 -0.23975657 -0.15020038 -0.10535152
0.09622084 0.070301116 -0.024601532 -0.23578215 -0.17975198 0.14172764 -0.04797308 0.089950494
-0.044803344 0.029145181 0.061399307 -0.11850712 0.23563795 0.110013895 0.25116998 0.2994553
-0.19466193 0.105414055 0.12590152 -0.19105269 -0.009231037 0.029087564 -0.08272906 -0.11784671
-0.15258856 -0.12043315 -0.082823366 0.19413911 0.089235984 -0.12160506 -0.22001685 -0.04928073
-0.25586927 0.035133008 -0.116561204 0.00041215328 -0.22302721 0.03923468 -0.003207778 -0.14817765
-0.1340166 0.16078489 -0.08891434 -0.0046619405 0.046419203 0.00660136 0.007587634 0.06262452
-0.28521693 0.1516373 0.11518361 0.14309652 0.049381435 -0.21791536 0.017991891 -0.19950657
-0.0819961 0.15655224 -0.031050725 -0.32243997 -0.050919615 -0.008924443 -0.18072917 -0.2356039
-0.24902192 -0.16880919 -0.34071892 -0.26415032 0.14730863 0.027230838 0.09851473 0.033657197
-0.15873171 0.10331461 -0.15835692 -0.09359292 -0.14598967 0.14988008 -0.17420986 -0.23649436
-0.12750687 0.068202056 0.023055606 -0.09513035 0.14660431 -0.08270001 0.024230585 -0.0060021123
-0.14132987 -0.08183451 -0.14674589 -0.06621854 -0.19135796 0.04182777 -0.09650157 -0.06699497
-0.025276413 0.0056890855 -0.08696629 -0.093870215 0.13806747 0.032038175 -0.19315255 -0.0040096263
-0.08344709 0.003836715 0.032873124 0.18656504 0.12739314 -0.17009376 -0.10747597 -0.025980523
-0.010796744 0.05753663 0.023399174 -0.18347064 0.04849484 -0.23481165 0.012226053 -0.33126488
0.17911239 -0.12938982 0.057957716 0.012820854 -0.04879178 -0.29456922 -0.14057429 -0.26221582
-0.09911753 -0.10109325 -0.083401576 0.01610715 -0.15405755 0.16447347 -0.15506491 0.039958134
-0.12960601 -0.029597208 0.15662508 0.036253 0.034020796 0.10421776 0.040968113 -0.18776645
-0.11929722 0.011044559 0.10443887 -0.18733284 -0.070846826 0.11440124 -0.36209652 0.067401655
0.06069562 -0.07260553 0.18797265 -0.043957535 0.051334813 -0.1336404 0.032406196 -0.03432978
0.2739321 0.12539083 0.07562822 -0.07037881 0.040153783 0.06611083 -0.21989895 -0.08212648
-0.045228172 0.14861612 -0.119746886 0.08531552 -0.28996623 -0.12395113 0.060683187 0.054489963
00000000: 822f bf3d 2535 12be bd5b c73d 0d75 9d3c
00000010: 921e 97bd a02d f8bb f508 c6bd fba8 bebd
00000020: fd43 30bd e691 43be 9073 01bc 931c f23d
00000030: 2511 1bbe 32f2 1ebd 88a3 a0bd 7c26 c43c
00000040: 8681 bcbd ee4f 09be 9b2f 12bd e5e4 2ebe
00000050: f3d8 fdbc 7647 6dbc 5286 0b3e 8efc 243e
00000060: 7b44 c13d d59c d7bd ce2e 5fbd 6d94 3cbe
00000070: e9d6 063d a571 c9bd 71ce 083e fbeb 643c
00000080: 1864 6d3e f575 f5bd 6440 1bbe 3d08 30be
00000090: fb02 42bd 71ff 6c3d 0dc0 92ba 1071 953d
000000a0: 1343 1f3e e733 40be 86ae b1be 9918 76be
000000b0: b817 823e c57b a4bd 6917 e2bd 9edb 49bd
000000c0: 717e 003d 8d2a 85bd 94e6 d93d 1a05 953d
000000d0: 975d 443e f66c 963c e524 0e3d 8380 e1be
000000e0: 0ee0 20be 0db0 c83d 8cbe a73d 5cc2 823c
000000f0: e63d 0b3c 86b5 0e3e 7f0a 003d d852 60bd
00000100: 12e7 633d 030b 53bb 30f3 ccbd ca92 ecbd
00000110: 24b8 92bd 4301 08bd 13fd 623e ab00 e2bd
00000120: 3653 e3bd cb46 1e3e b41f 28bd 000c 463d
00000130: 4522 083e bf82 75be 21ce 19be 8ac2 d7bd
00000140: 6f0f c53d 08fa 8f3d 2789 c9bc e070 71be
00000150: e710 38be 0d21 113e 6c7f 44bd f737 b83d
00000160: b683 37bd e0c1 ee3c d77d 7b3d dcb3 f2bd
00000170: 134b 713e f74e e13d 5a99 803e 3552 993e
00000180: 7555 47be 53e3 d73d 54ec 003e 51a3 43be
00000190: c73d 17bc 0b49 ee3c da6d a9bd 9e59 f1bd
000001a0: 2d40 1cbe a8a5 f6bd 4c9f a9bd 67cc 463e
000001b0: 5bc1 b63d 130c f9bd 194c 61be 97da 49bd
000001c0: 4c01 83be a1e7 0f3d a4b7 eebd 4716 d839
000001d0: 3f61 64be 8bb4 203d 9639 52bb e2bb 17be
000001e0: a63b 09be cba4 243e b918 b6bd 31c3 98bb
000001f0: 1022 3e3d 3950 d83b b0a1 f83b 4941 803d
00000200: f407 92be cf46 1b3e 62e5 eb3d e587 123e
00000210: 3044 4a3d 3425 5fbe bb63 933c 734b 4cbe
00000220: 92ed a7bd 3b4f 203e 175e febc da16 a5be
00000230: 1691 50bd d437 12bc 1111 39be 2642 71be
00000240: 9aff 7ebe 51dc 2cbe b672 aebe b63e 87be
00000250: 13d8 163e 3513 df3c 17c2 c93d 21dc 093d
00000260: 918a 22be 9c96 d33d 5128 22be a5ad bfbd
00000270: 517e 15be 2a7a 193e 1264 32be 942b 72be
00000280: 2991 02be 85ad 8b3d 1cdf bc3c b3d3 c2bd
00000290: 711f 163e 9f5e a9bd 387f c63c 5ead c4bb
000002a0: c7b8 10be da98 a7bd 8e44 16be 969d 87bd
000002b0: 57f3 43be 9953 2b3d 9da2 c5bd a934 89bd
000002c0: 7b10 cfbc 826b ba3b 621b b2bd 073f c0bd
000002d0: 8f61 0d3e 763a 033d c8c9 45be 2f63 83bb
000002e0: 4fe6 aabd 6571 7b3b f8a5 063d e80a 3f3e
000002f0: 5973 023e 0f2d 2ebe 5d1c dcbd 1bd5 d4bc
00000300: d4e4 30bc 88ab 6b3d a0af bf3c badf 3bbe
00000310: 86a2 463d 7772 70be c84f 483c 8d9b a9be
00000320: 3d69 373e c47e 04be 1265 6d3d 8f0e 523c
00000330: e4d9 47bd c7d1 96be b5f2 0fbe 2741 86be
00000340: 22fe cabd fa09 cfbd 72ce aabd 24f3 833c
00000350: 43c1 1dbe bc6b 283e 56c9 1ebe 24ab 233d
00000360: 70b7 04be d875 f2bc 5362 203e 077e 143d
00000370: 6459 0b3d 1f70 d53d 2ece 273d d945 40be
00000380: 1a52 f4bd 3df4 343c 0ce4 d53d 2ed4 3fbe
00000390: 2418 91bd 334b ea3d b764 b9be e109 8a3d
000003a0: f89b 783d 35b2 94bd e77b 403e d10c 34bd
000003b0: 7444 523d 07d9 08be 5cbc 043d 629d 0cbd
000003c0: d440 8c3e 7466 003e f8e2 9a3d c422 90bd
000003d0: 4b78 243d 1d65 873d 312d 61be ee31 a8bd
000003e0: 2d41 39bd d32e 183e db3d f5bd e7b9 ae3d
000003f0: 7476 94be 17da fdbd ef8e 783d de30 5f3d

layers.12.bias f4 [120]
0.2541847 -0.27423584 0.022415288 -0.14628963 0.026364647 -0.16388814 -0.18693772 -0.11959672
-0.06846081 0.16397744 -0.11496586 -0.18881218 0.066428095 -0.19292173 -0.047135074 0.16378611
0.13926435 -0.1095441 0.21010457 -0.21665679 -0.1736984 -0.06069216 -0.089053266 -0.11008309
0.14558475 -0.07589281 -0.18055642 0.09564194 -0.19421509 -0.18995464 -0.12277161 -0.2215751
-0.04841051 -0.15257984 -0.22356889 -0.20886941 0.016810996 -0.13500439 -0.23656875 0.07189519
-0.026833154 -0.18621393 -0.02388572 0.04561611 -0.20116904 -0.03134377 -0.038297895 -0.066721715
-0.05262495 -0.06766693 -0.10655153 -0.033768896 -0.1288546 0.33849663 -0.14544892 -0.18088163
-0.060383774 0.013604486 -0.115908705 -0.28023893 -0.16655332 -0.24679099 0.005805039 -0.053140357
-0.046376072 -0.13268739 0.12954453 0.11478447 0.06468644 -0.15584017 -0.22995207 -0.021570705
-0.10929422 -0.10459033 -0.092129305 -0.14913078 -0.10912769 0.031859532 -0.07159355 -0.06517004
-0.1854082 0.044601995 -0.050589573 -0.08348351 -0.2022593 -0.16355021 -0.24218634 0.18873222
-0.017887473 -0.0894621 -0.0016967542 -0.09838907 -0.18207407 0.22326997 -0.08502145 0.10044286
-0.25557455 -0.053693697 -0.035981104 0.005401412 -0.10910593 -0.15575907 -0.17870186 2.607744e-05
-0.11007001 -0.17797127 -0.16735534 0.23130901 -0.05956274 -0.13474564 -0.21302845 -0.15785836
-0.16216823 -0.10981899 -0.21137473 -0.031803664 0.1445735 -0.007844632 -0.11667025 0.029288031
00000000: 7f24 823e a468 8cbe 44a0 b73c f3cc 15be
00000010: acfa d73c 4bd2 27be 9a6c 3fbe 20ef f4bd
00000020: 2e35 8cbd b4e9 273e 3973 ebbd fb57 41be
00000030: 740b 883d 468d 45be b510 41bd 8cb7 273e
00000040: 509b 0e3e a858 e0bd a725 573e 47db 5dbe
00000050: fedd 31be 5898 78bd 8f61 b6bd 3e73 e1bd
00000060: 2b14 153e b16d 9bbd c8e3 38be ecdf c33d
00000070: 52e0 46be 7883 42be af6f fbbd 95e4 62be
00000080: 194a 46bd e43d 1cbe 3eef 64be dde1 55be
00000090: 37b7 893c 973e 0abe 143f 72be c93d 933d
000000a0: 34d1 dbbc ddae 3ebe fcab c3bc f5d7 3a3d
000000b0: 42ff 4dbe 5362 00bd 41de 1cbd 65a5 88bd
000000c0: 428d 57bd f694 8abd b037 dabd 4151 0abd
000000d0: 76f2 03be 6e4f ad3e 90f0 14be 0939 39be
000000e0: fa54 77bd 5ae5 5e3c 8b61 edbd 7a7b 8fbe
000000f0: f48c 2abe c7b6 7cbe 3238 be3b b4a9 59bd
00000100: d6f4 3dbd 34df 07be 52a7 043e 1f14 eb3d
00000110: 537a 843d 9194 1fbe 8e78 6bbe 0cb5 b0bc
00000120: a6d5 dfbd 7433 d6bd 4aae bcbd bdb5 18be
00000130: 577e dfbd 247f 023d a49f 92bd df77 85bd
00000140: a6db 3dbe 95b0 363d 0337 4fbd 67f9 aabd
00000150: 101d 4fbe b579 27be b2ff 77be 0543 413e
00000160: c088 92bc e837 b7bd a065 deba 3580 c9bd
00000170: a071 3abe e2a0 643e ba1f aebd fcb4 cd3d
00000180: abda 82be eced 5bbd ec60 13bd 54fe b03b
00000190: ee72 dfbd 4e7f 1fbe 9ffd 36be e0c0 da37
000001a0: 636c e1bd 1a3e 36be 335f 2bbe 45dc 6c3e
000001b0: 0ff8 73bd c3fa 09be 2124 5abe 9fa5 21be
000001c0: 6e0f 26be c7e8 e0bd 9e72 58be 8f44 02bd
000001d0: 130b 143e c586 00bc d0f0 eebd 74ed ef3c

layers.14.weight f4 [84, 120]
-0.18964358 0.052599147 0.026725573 0.06895891 0.10562772 -0.120801605 0.12065073 -0.018637799
0.04158092 0.012554625 -0.050965294 -0.019053327 -0.28907022 -0.032970145 -0.22826669 0.09564146
-0.052176174 -0.17871179 0.0024293857 -0.1824727 -0.06885861 0.03469426 0.067505926 -0.11742285
-0.2507626 0.07426003 -0.17619266 -0.0067934394 -0.20797512 -0.041680504 -0.076156914 0.025313234
0.03680717 0.06512965 -0.061463207 0.14764242 0.0020562925 0.05399382 -0.00947038 -0.00057006476
-0.09956148 -0.004253009 -0.24777219 -0.2330911 -0.056788113 0.23402643 -0.13404515 -0.10209199
0.032100696 0.051519208 0.038727038 -0.0033277022 0.24890468 -0.4136577 -0.10749185 -0.102128685
-0.05978017 -0.2118836 -0.06379019 -0.15584739 -0.02974989 0.1790118 -0.12959985 -0.07616259
-0.24328236 -0.012944393 0.041934542 -0.19554447 0.08806934 -0.08869991 0.12644623 0.048360202
-0.049174774 0.009277004 0.12645622 -0.022381768 -0.10798072 -0.08551933 0.036585297 0.09942077
-0.08449184 -0.17094582 -0.015144374 0.039856467 0.25424072 -0.034984283 -0.18319626 -0.17703949
-0.32271954 -0.07850918 0.088842645 0.15185176 -0.023414876 -0.14344288 -0.009806362 -0.037350688
-0.04119429 0.10827087 0.0820892 -0.06170193 -0.00213253 0.033178873 -0.011056168 -0.014797987
0.11094632 -0.117062084 0.08943498 -0.15639344 0.09819969 0.082524225 -0.14434896 0.17358309
-0.026542753 -0.009894148 -0.021789473 0.089667276 0.0842096 0.028053703 -0.09231937 0.01585754
0.061550062 0.043670673 0.032567684 -0.1204641 -0.04673258 0.039030842 0.0822159 -0.1624267
0.12551588 0.08734533 -0.06315744 0.0074935537 0.086105265 0.08259312 0.064574376 -0.044851337
-0.04164482 -0.08782574 -0.06903559 -0.10438374 0.08922807 0.12944889 -0.053866122 0.026739234
-0.15580627 -0.16437104 -0.21540326 -0.022905504 -0.0049778554 -0.1119608 -0.1204953 -0.08948055
0.029027697 -0.15736377 -0.09770811 0.00827588 0.07764245 0.0479748 0.017428301 0.1261099
-0.018411921 -0.026424855 -0.071269594 -0.13899589 0.26183608 0.16340071 -0.10012402 -0.009714143
0.10792196 -0.10412209 0.16333102 -0.13915509 0.0014618716 0.060584817 0.04221874 -0.09090382
0.03598843 -0.0021345853 0.15922871 -0.076014124 -0.044880953 -0.12016884 0.19040763 -0.22339772
0.17080142 -0.027046211 0.07006522 -0.027542721 -0.13622557 0.03231153 -0.0020976476 0.041555453
-0.040907133 0.045673832 0.09097039 0.20410745 0.24769689 -0.08126233 0.06957798 0.17181939
-0.0146011235 -0.2911528 -0.07335344 0.100987956 0.15430093 -0.040180527 0.11965592 -0.04674838
-0.049385805 0.15890455 0.17832781 -0.08220163 0.07957587 0.12787388 -0.013746819 -0.0062037734
-0.070788935 -0.16665074 0.025235098 -0.033954527 0.10364066 0.058522142 -0.2677611 0.028043464
0.08781281 -0.0014167634 -0.22070034 0.15789992 -0.2049629 -0.0836064 -0.16613954 0.22377661
0.11348385 -0.015251864 -0.15147334 0.11954443 0.14604403 0.07884685 0.07264586 0.013919191
-0.11712212 0.18627413 0.026195578 -0.13905342 -0.00485733 0.08754037 0.11223766 -0.2573456
-0.007820412 0.036152057 -0.17118058 0.058986433 -0.015816681 0.023220371 -0.19019696 -0.14057772
00000000: ed31 42be 3472 573d 97ef da3c 543a 8d3d
00000010: 5953 d83d d566 f7bd bb17 f73d 4cae 98bc
00000020: c150 2a3d eab1 4d3c fcc0 50bd b915 9cbc
00000030: 0301 94be b40b 07bd bebe 69be abdf c33d
00000040: afb6 55bd 3900 37be 5436 1f3b 20da 3abe
00000050: be05 8dbd 921b 0e3d 8c40 8a3d 647b f0bd
00000060: f563 80be a515 983d d96b 34be 809b debb
00000070: 6ef7 54be 2db9 2abd 28f8 9bbd b35d cf3c
00000080: 1dc3 163d b262 853d d8c0 7bbd 932f 173e
00000090: ddc2 063b a028 5d3d a729 1bbc 6670 15ba
000000a0: e4e6 cbbd d35c 8bbb feb7 7dbe 6faf 6ebe
000000b0: a79a 68bd a0a4 6f3e 2243 09be 9b15 d1bd
000000c0: 057c 033d ce05 533d 3ea0 1e3d 9415 5abb
000000d0: dee0 7e3e f1ca d3be b024 dcbd d828 d1bd
000000e0: 0ddc 74bd 04f8 58be 6ea4 82bd 7596 1fbe
000000f0: 0bb6 f3bc df4e 373e d3b5 04be 22fb 9bbd
00000100: 031f 79be b814 54bc 8ec3 2b3d cf3c 48be
00000110: b35d b43d 4ca8 b5bd 1f7b 013e 5915 463d
00000120: 7d6b 49bd 93fe 173c bd7d 013e f859 b7bc
00000130: ff24 ddbd c224 afbd 77da 153d 1e9d cb3d
00000140: 0f0a adbd 6c0c 2fbe 1c20 78bc 8940 233d
00000150: d72b 823e ae4b 0fbd cd97 3bbe d749 35be
00000160: 7f3b a5be 6cc9 a0bd 22f3 b53d 077f 1b3e
00000170: 8ed0 bfbc b1e2 12be ddaa 20bc 09fd 18bd
00000180: 58bb 28bd 1ebd dd3d 621e a83d 2abb 7cbd
00000190: ebc1 0bbb 92e6 073d ee24 35bc 4273 72bc
000001a0: d337 e33d 3fbe efbd b029 b73d 9a25 20be
000001b0: eb1c c93d 7602 a93d 37d0 13be c4bf 313e
000001c0: 3070 d9bc 111b 22bc d67f b2bc 7aa3 b73d
000001d0: 1576 ac3d e1d0 e53c f011 bdbd ace7 813c
000001e0: eb1b 7c3d 05e0 323d b165 053d e2b5 f6bd
000001f0: a96a 3fbd cede 1f3d cf60 a83d 2f53 26be
00000200: 3c87 003e 1ce2 b23d b058 81bd 7c8c f53b
00000210: f557 b03d 9526 a93d 923f 843d 09b6 37bd
00000220: c293 2abd fbdd b3bd 8862 8dbd 24c7 d5bd
00000230: 35bd b63d 408e 043e b9a2 5cbd 3d0c db3c
00000240: ae8b 1fbe e250 28be ac92 5cbe 53a4 bbbc
00000250: 471d a3bb b44b e5bd 3dc6 f6bd 9441 b7bd
00000260: 7ecb ed3c f823 21be 311b c8bd 8e97 073c
00000270: 0103 9f3d 3981 443d ccc5 8e3c f422 013e
00000280: 99d4 96bc f078 d8bc cbf5 91bd f054 0ebe
00000290: 610f 863e 8452 273e d20d cdbd 1228 1fbc
000002a0: 3006 dd3d f63d d5bd 3f40 273e ac7e 0ebe
000002b0: 459c bf3a c927 783d 8fed 2c3d c82b babd
000002c0: 9b68 133d 66e4 0bbb da0c 233e 4bad 9bbd
000002d0: 17d5 37bd 151b f6bd 38fa 423e 5fc2 64be
000002e0: 91e6 2e3e 0490 ddbc 5b7e 8f3d 46a1 e1bc
000002f0: b77e 0bbe 1859 043d b078 09bb 0d36 2a3d
00000300: 3d8e 27bd 7c14 3b3d af4e ba3d 8b01 513e
00000310: 41a4 7d3e dd6c a6bd e67e 8e3d 6cf1 2f3e
00000320: 8d39 6fbc fb11 95be 543a 96bd c6d2 ce3d
00000330: 1001 1e3e 5694 24bd 2a0e f53d 3b7b 3fbd
00000340: c548 4abd e0b7 223e 919b 363e 5459 a8bd
00000350: acf8 a23d 5ff1 023e 573a 61bc 0649 cbbb
00000360: caf9 90bd 7ea6 2abe d6b9 ce3c e713 0bbd
00000370: 8e41 d43d eab4 6f3d fc17 89be 68bb e53c
00000380: 34d7 b33d b1b2 b9ba 45ff 61be 84b0 213e
00000390: cbe1 51be d539 abbd 7c20 2abe b225 653e
000003a0: 396a e83d f4e2 79bc d41b 1bbe b6d3 f43d
000003b0: 918c 153e 757a a13d 5ac7 943d 520d 643c
000003c0: b9dd efbd a5be 3e3e 1c98 d63c 0564 0ebe
000003d0: 3d2a 9fbb 5e48 b33d dcdc e53d cdc2 83be
000003e0: 2f21 00bc 2e14 143d f649 2fbe c29b 713d
000003f0: fc91 81bc a638 be3c fec2 42be 9bf3 0fbe

layers.14.bias f4 [84]
-0.21923302 0.08933172 -0.059560735 -0.32138428 -0.12747988 -0.04328419 -0.19432347 -0.11328925
-0.27222994 -0.05581765 -0.02034287 -0.19813022 -0.27752495 -0.15032399 0.124717265 -0.051033642
0.0153305605 0.20668979 -0.20582984 0.05333497 -0.01162386 0.094084404 -0.25125226 -0.14206041
0.13150439 -0.16724767 -0.07341144 -0.20770176 -0.15970701 -0.103346445 -0.17125802 -0.53689086
-0.0030746541 -0.19293031 0.009590747 -0.122866526 -0.12078879 -0.107134156 0.12533969 -0.15655546
0.24966116 -0.29678568 -0.22502466 -0.2517098 0.10971874 -0.06703775 -0.2818005 -0.12760453
-0.2311837 -0.20066637 -0.103957005 -0.043405976 0.1785745 -0.10855894 -0.26696238 -0.35897523
-0.28301647 -0.3182025 -0.1116265 -0.17408699 -0.07004591 0.10988686 0.052420616 -0.0002082383
-0.299762 0.30168536 -0.19027059 -0.045083616 0.1956191 0.28645778 -0.14356764 -0.11658857
-0.13041334 -0.2840171 -0.27884433 -0.13701887 -0.10605844 -0.4441797 0.09124782 0.04292983
-0.14129819 -0.17836243 -0.10507747 0.11465106
00000000: 9f7e 60be 8cf3 b63d f5f5 73bd 7b8c a4be
00000010: 168a 02be c34a 31bd bbfc 46be 3204 e8bd
00000020: b961 8bbe 0ca1 64bd 17a6 a6bc a6e2 4abe
00000030: c017 8ebe 88ee 19be c46b ff3d a708 51bd
00000040: 082d 7b3c 7da6 533e 0fc5 52be c575 5a3d
00000050: 0172 3ebc 53af c03d 23a4 80be 4978 11be
00000060: 16a9 063e f942 2bbe bd58 96bd c5af 54be
00000070: 3c8a 23be 4da7 d3bd 435e 2fbe ae71 09bf
00000080: 2380 49bb 868f 45be 8222 1d3c 72a1 fbbd
00000090: 1d60 f7bd 2769 dbbd 0c59 003e 1350 20be
000000a0: 2da7 7f3e 4bf4 97be dd6c 66be 1be0 80be
000000b0: 38b4 e03d 164b 89bd 2848 90be c3aa 02be
000000c0: 6bbb 6cbe 7c7b 4dbe 69e7 d4bd 77ca 31bd
000000d0: 3cdc 363e 2654 debd 4baf 88be 9acb b7be
000000e0: 89e7 90be 70eb a2be 6f9c e4bd dc43 32be
000000f0: 3b74 8fbd 5d0c e13d 00b7 563d 8b5a 5ab9
00000100: 687a 99be 8176 9a3e 4bd6 42be 99a9 38bd
00000110: 6050 483e 98aa 923e 6503 13be fdc5 eebd
00000120: 138b 05be b06a 91be afc4 8ebe ad4e 0cbe
00000130: 2b35 d9bd 866b e3be 23e0 ba3d 30d7 2f3d
00000140: 79b0 10be a4a4 36be db32 d7bd 2dce ea3d

layers.16.weight f4 [10, 84]
-0.1454698 -0.3980287 -0.25142792 -0.47764772 0.0042987745 -0.046216086 -0.28066164 0.009456934
-0.24723776 -0.4251575 -0.15043567 -0.025396543 -0.29679027 0.023901543 0.061682906 -0.01873531
0.0033309695 -0.27095184 -0.013213147 -0.44727924 -0.20712169 0.025815086 0.00028061416 -0.41953424
-0.25680393 -0.34174 -0.24752069 0.07371053 -0.7808706 -0.22105283 -0.009297041 -0.024570012
0.07319501 -0.037442308 -0.19023634 0.1239559 -0.13202302 -0.102885365 -0.0026551208 -0.029752403
-0.061059956 -0.077779636 -0.14744692 0.029729754 0.027075725 0.10669303 -0.15843084 -0.039117344
0.0680958 -0.7070435 -0.059307594 -0.19798048 -0.058122553 0.034729674 -0.22451757 -0.12167834
0.008476206 -0.08389836 -0.069947936 -0.036957648 -0.025468124 -0.008965075 -0.021601502 0.055790477
0.041139085 -0.5195065 -0.07800976 0.06642941 -0.056614675 -0.18133585 -0.16749375 -0.93044573
-0.32044467 0.019227 0.07924928 -0.32454202 -0.18622355 -0.18547997 -0.4231649 -0.15500902
0.039499503 -0.023639759 0.074910425 -0.05129902 -0.03293086 -0.012878775 -0.0038834908 0.0034655721
-0.012091548 -0.05601614 -0.25773755 -0.04307948 -0.4315712 0.02595692 -0.23818155 -0.015174172
-0.017257547 -0.28609166 0.05973444 -0.17304938 0.015937328 -0.0400749 -0.25013092 -0.14652911
-0.271357 0.08468777 -0.0748977 -0.08201659 -0.30641508 0.101925075 -0.028109465 -0.06523671
0.0043944567 -0.13100088 -0.17834477 -0.19586024 -0.30186313 -0.18377699 -0.22775859 -0.26277888
0.04263207 0.07923903 -0.22353888 -0.013586561 -0.05919846 0.043798767 -0.22903492 0.043924153
-0.09774317 -0.12251207 -0.06509072 0.062875055 0.027147032 0.12280015 0.03623662 -0.33021453
-0.08418563 -0.34712753 0.037582334 -0.07908404 -0.08917472 0.036713377 0.106831305 -0.09286612
0.015479856 0.0035515511 -0.2740097 -0.115724064 -0.09687853 -0.11830861 0.09929265 -0.26407686
-0.21247591 0.06986364 0.047171254 -0.03562219 -0.1097537 -0.037068352 -0.030275369 0.016595094
-0.27252007 -0.4736634 0.01921973 -0.031020548 0.04964525 -0.04129929 -0.058130227 0.00733238
-0.20339692 0.017727751 0.048758436 -0.07397194 -0.07545741 -0.10301092 -0.13818121 -0.17336446
-0.17988442 0.076184034 0.05525711 -0.015393493 -0.40325713 -0.3077612 0.023918264 -0.19957149
0.08507082 -0.09809862 -0.24806689 -0.12858586 0.0657612 -0.13586454 0.04637429 -0.4730261
-0.1325177 -0.0051993364 0.028904805 0.055658765 -0.105365075 0.034062937 0.022384135 -0.0308808
-0.07043151 -0.0688845 -0.16914803 -0.08658516 -0.03941737 -0.16743635 -0.057838414 -0.34537038
-0.14386351 -0.056360006 0.063009866 -0.45853928 -0.008205155 -0.01666616 -0.19141856 -0.010028449
-0.08587619 -0.3935443 0.014451264 0.07692183 0.0192656 -0.20497519 -0.2051881 -0.19252634
-0.1482436 -0.20058441 -0.013611987 -0.119729586 -0.1426247 -0.08897097 0.03607221 0.043503698
0.09711572 -0.13506149 -0.2880092 -0.043223992 0.060043976 -0.21684562 0.029196847 -0.14416093
-0.0015269315 0.004697809 0.010949123 0.023189308 0.07626929 -0.16318049 -0.0032023052 -0.08389644
-0.0809062 -0.068448424 -0.10415958 0.0647609 -0.37044013 -0.12809236 -0.13079952 -0.21271181
00000000: 09f6 14be 6bca cbbe 29bb 80be 3e8e f4be
00000010: bcdc 8c3b 144d 3dbd e2b2 8fbe 42f1 1a3c
00000020: e52b 7dbe 3eae d9be cf0b 1abe 690c d0bc
00000030: e5f4 97be 2bcd c33c 37a7 7c3d cb7a 99bc
00000040: 654c 5a3b 33ba 8abe f57b 58bc c901 e5be
00000050: b517 54be 297a d33c 651f 9339 31cd d6be
00000060: ce7b 83be 8cf8 aebe 1076 7dbe 8cf5 963d
00000070: 23e7 47bf ac5b 62be 9e52 18bc 0d47 c9bc
00000080: 44e7 953d 1b5d 19bd 51cd 42be 97dc fd3d
00000090: 0b31 07be 90b5 d2bd 8901 2ebb 50bb f3bc
000000a0: 011a 7abd ee4a 9fbd 53fc 16be d08b f33c
000000b0: e9cd dd3c e081 da3d b23b 22be 8239 20bd
000000c0: d075 8b3d ce00 35bf 85ec 72bd 65bb 4abe
000000d0: ea11 6ebd b440 0e3d efe7 65be 7e32 f9bd
000000e0: c9df 0a3c e7d2 abbd dd40 8fbd e760 17bd
000000f0: 87a2 d0bc 40e2 12bc a2f5 b0bc 8e84 643d
00000100: 7581 283d 61fe 04bf 95c3 9fbd 240c 883d
00000110: cae4 67bd 1bb0 39be 7b83 2bbe b131 6ebf
00000120: 5311 a4be f181 9d3c 724d a23d 5f2a a6be
00000130: 63b1 3ebe 76ee 3dbe 12a9 d8be afba 1ebe
00000140: 3bca 213d 2ba8 c1bc a36a 993d ec1e 52bd
00000150: 82e2 06bd 7f01 53bc 2a82 7ebb a71e 633b
00000160: a11b 46bc 2e71 65bd 2df6 83be 1c74 30bd
00000170: e6f6 dcbe 9ba3 d43c dde5 73be 179d 78bc
00000180: b35f 8dbc 9b7a 92be 1aac 743d db33 31be
00000190: 008f 823c 9425 24bd 2911 80be ba0b 16be
000001a0: 4eef 8abe c870 ad3d f763 99bd 50f8 a7bd
000001b0: 70e2 9cbe 18be d03d d245 e6bc d39a 85bd
000001c0: 60ff 8f3b 1825 06be 03a0 36be 968f 48be
000001d0: ce8d 9abe 0930 3cbe 8c39 69be f48a 86be
000001e0: f79e 2e3d 1348 a23d 60e7 64be 2b9a 5ebc
000001f0: 167a 72bd 5666 333d 2188 6abe d0e9 333d
00000200: 922d c8bd 9ce7 fabd 494e 85bd a3c4 803d
00000210: 7463 de3c a57e fb3d da6c 143d e111 a9be
00000220: 8469 acbd b3ba b1be efef 193d d0f6 a1bd
00000230: 3ca1 b6bd c460 163d 5fca da3d 9830 bebd
00000240: 399f 7d3c 24c1 683b 004b 8cbe bd00 edbd
00000250: 4068 c6bd c94b f2bd f259 cb3d 1535 87be
00000260: 4993 59be ab14 8f3d a536 413d 93e8 11bd
00000270: 8cc6 e0bd fcd4 17bd 0d04 f8bc 6ff2 873c
00000280: c087 8bbe 0284 f2be b272 9d3c ce1e febc
00000290: d158 4b3d 7229 29bd f619 6ebd 7644 f03b
000002a0: 4847 50be ca39 913c edb6 473d 9a7e 97bd
000002b0: 6a89 9abd 64f7 d2bd 607f 0dbe 7486 31be
000002c0: 9f33 38be 6006 9c3d 4855 623d fd34 7cbc
000002d0: b877 cebe e092 9dbe 3cf0 c33c 785c 4cbe
000002e0: 9c39 ae3d eee7 c8bd 3f05 7ebe 03ac 03be
000002f0: cfad 863d 1320 0bbe f8f2 3d3d 7a30 f2be
00000300: b8b2 07be 325f aabb c5c9 ec3c 72fa 633d
00000310: a5c9 d7bd 9485 0b3d ef5e b73c bbf9 fcbc
00000320: 653e 90bd 5113 8dbd 2435 2dbe 8f53 b1bd
00000330: 1c74 21bd 6f74 2bbe f9e7 6cbd 63d4 b0be
00000340: f550 13be c0d9 66bd 510b 813d a9c5 eabe
00000350: ea6e 06bc 7987 88bc 3a03 44be 5d4e 24bc
00000360: dbdf afbd a37e c9be ffc4 6c3c 3189 9d3d
00000370: e4d2 9d3c 04e5 51be d41c 52be a025 45be
00000380: 2ccd 17be 0066 4dbe d004 5fbc c934 f5bd
00000390: 360c 12be 6936 b6bd 74c0 133d ef30 323d
000003a0: 9be4 c63d 8f4d 0abe f175 93be a40b 31bd
000003b0: acf0 753d c70c 5ebe 3a2e ef3c ec9e 13be
000003c0: 5223 c8ba 14f0 993b f363 333c 81f7 bd3c
000003d0: 1333 9c3d c918 27be c4dd 51bb e6d1 abbd
000003e0: 26b2 a5bd b02e 8cbd 9e51 d5bd 5da1 843d
000003f0: 54aa bdbe a52a 03be 4ff0 05be 20d1 59be

layers.16.bias f4 [10]
0.16983826 0.31996766 0.28798518 0.16546059 0.18598065 0.39538506 -0.023191899 0.17575641
0.5891378 0.21579903
00000000: 15ea 2d3e cdd2 a33e cb72 933e 806e 293e
00000010: b671 3e3e e96f ca3e f0fc bdbc 7df9 333e
00000020: bcd1 163f 6cfa 5c3e
